bilstm_model_pytorch.pth (torch, 156373 bytes, 10 tensors)

lstm.weight_ih_l0 f4 [256, 6]
0.1095491 0.15864247 0.11013884 -0.06133201 -0.08656231 -0.18756212 0.06446347 0.15311262
-0.029609168 0.011765709 0.117715955 -0.07289081 0.05285967 0.2205406 0.2711498 0.24446215
0.00315577 0.23795731 0.081686996 -0.107023716 -0.0602159 0.03992392 0.15370098 0.14083901
0.07510271 0.06778562 0.20657815 0.078262255 0.1295854 0.19588096 0.39020917 0.06262416
-0.00566926 -0.14960448 -0.04663099 -0.09977399 0.11155476 0.12252305 0.22860439 0.10583511
0.06594505 0.19229534 0.10356421 0.03572709 -0.049232617 0.07580607 -0.05956773 0.017637154
-0.025164949 0.050612066 -0.037684824 0.17232971 0.16203971 -0.042576395 0.21750888 0.022653122
-0.18883416 0.14881572 -0.26905015 -0.015671022 0.3040552 -0.035232805 0.042798787 -0.00060717727
-0.12254607 0.08314613 0.097489595 -0.04429274 0.439076 0.36783594 0.11545427 0.21795686
0.11317439 0.21636899 -0.038796842 0.08660849 0.10557806 -0.14845714 0.18043965 0.05008229
0.012381673 0.15057294 0.07009404 0.03533054 -0.04038407 0.20288412 -0.07771238 0.22223334
0.3000364 -0.59500265 -0.009050368 0.19859284 -0.06581209 0.08253308 0.12528634 0.12942168
-0.06706608 -0.04236691 0.09093612 -0.043383226 0.06443688 -0.38266528 0.11630509 -0.037886545
0.25359213 0.2159139 0.08945012 -0.073085226 0.084397554 0.14975257 -0.08313987 0.17530327
-0.09887853 -0.11115721 0.11987831 -0.040571593 0.06371644 -0.19373764 0.1945947 0.10606024
0.08219943 -0.023888854 -0.26190317 0.3032887 -0.10084886 0.1474028 0.030111155 -0.17740794
0.06412039 -0.14926009 0.19792448 -0.06647419 0.21987538 0.13685809 0.062011298 0.11225614
-0.06794706 0.017542057 -0.07489149 -0.007858363 0.6411501 0.21161592 0.016786572 0.20090671
0.05013194 0.15622117 -0.07089676 0.20974924 0.012349489 -0.1608579 0.19350044 0.03540521
-0.12604342 0.14602096 0.1599533 0.20637932 0.09617818 -0.06257357 0.17827083 0.09889592
0.09223525 0.030685639 0.029751603 -0.056208946 0.0441486 -0.00089345383 0.0034977202 0.1626043
0.118261404 0.018423157 0.04099579 0.19187252 0.03069641 0.020133745 0.026345022 0.19751693
0.1393943 0.0068705226 0.09334338 0.22399567 0.033062343 0.039830558 -0.04574423 0.206893
0.23009586 -0.025543064 0.26086158 -0.099390686 -0.0022942475 0.14534952 0.16625565 0.16135514
0.09083228 0.061164636 0.051071577 -0.02227928 0.045311343 0.010752268 0.15590245 0.020333838
0.047618046 -0.008303107 0.03527062 0.0035969818 0.1813466 0.09426206 0.089874335 0.27261248
0.23987326 -0.045128085 0.028311977 -0.10189258 0.039547116 0.048259124 0.02467087 -0.044084817
-0.15334068 0.01879236 -0.12181686 -0.07580106 -0.10072348 -0.04899484 0.13052234 0.09004506
-0.20656663 0.050614186 0.3005869 0.012455611 0.30261967 -0.0066736913 -0.0736937 -0.013787729
0.29152572 -0.026632505 -0.03744804 0.15367076 -0.045467094 -0.0051451917 -0.04905678 -0.17122659
-0.16699421 0.14333804 0.07235687 0.16687752 0.10128422 0.043757867 0.071698904 0.30462554
0.047823906 0.19594595 -0.122220054 0.22344422 0.07875553 -0.18459845 -0.09853014 -0.24228144
00000000: 475b e03d 2c73 223e 7990 e13d 4637 7bbd
00000010: 9547 b1bd 4910 40be 6c05 843d 8ec9 1c3e
00000020: ed8e f2bc f6c4 403c 1015 f13d c747 95bd
00000030: 6283 583d 65d5 613e 26d4 8a3e 4954 7a3e
00000040: 09d1 4e3b 15ab 733e 834b a73d 402f dbbd
00000050: f3a4 76bd 4487 233d ca63 1d3e 1a38 103e
00000060: 73cf 993d 30d3 8a3d 3989 533e f647 a03d
00000070: 09b2 043e 0595 483e 7fc9 c73e 1841 803d
00000080: 33c5 b9bb eb31 19be 2300 3fbd 4e56 ccbd
00000090: d276 e43d 5ded fa3d 4517 6a3e 14c0 d83d
000000a0: 330e 873d 12e9 443e 7919 d43d 9256 123d
000000b0: 24a8 49bd 3640 9b3d 4bfd 73bd cb7b 903c
000000c0: b926 cebc 994e 4f3d 675b 1abd 3377 303e
000000d0: bded 253e 9664 2ebd a6ba 5e3e 0a93 b93c
000000e0: be5d 41be 2663 183e f1c0 89be 8460 80bc
000000f0: 20ad 9b3e 4650 10bd c84d 2f3d fa2a 1fba
00000100: 6ff9 fabd 8548 aa3d a0a8 c73d 4e6c 35bd
00000110: 92ce e03e fe54 bc3e 4a73 ec3d 1530 5f3e
00000120: f9c7 e73d d58f 5d3e 70e9 1ebd cb5f b13d
00000130: 4f39 d83d 2605 18be 2cc5 383e 1623 4d3d
00000140: 80dc 4a3c cb2f 1a3e 778d 8f3d c2b6 103d
00000150: c469 25bd dbc0 4f3e ab27 9fbd 2391 633e
00000160: 5f9e 993e 1852 18bf ff47 14bc ec5b 4b3e
00000170: 7dc8 86bd 1a07 a93d 104b 003e 1e87 043e
00000180: f159 89bd ed88 2dbd b73c ba3d 9cb2 31bd
00000190: 7cf7 833d b4ec c3be 5d31 ee3d ec2e 1bbd
000001a0: d4d6 813e 8918 5d3e a031 b73d b5ad 95bd
000001b0: a0d8 ac3d bd58 193e 3c45 aabd b382 333e
000001c0: d480 cabd 64a6 e3bd c282 f53d 662e 26bd
000001d0: c47d 823d 2963 46be d543 473e 1c36 d93d
000001e0: 2d58 a83d 8fb2 c3bc 2c18 86be a848 9b3e
000001f0: d989 cebd c2f0 163e abab f63c 6daa 35be
00000200: 8d51 833d a3d7 18be b7ac 4a3e 9f23 88bd
00000210: 0327 613e 8724 0c3e 8fff 7d3d 8ce6 e53d
00000220: d427 8bbd 5cb4 8f3c b660 99bd 5dc0 00bc
00000230: 6a22 243f d8b1 583e fe83 893c 7dba 4d3e
00000240: 2657 4d3d 71f8 1f3e 5232 91bd 81c8 563e
00000250: 8355 4a3c efb7 24be fb24 463e 0e05 113d
00000260: 8711 01be 8586 153e ccca 233e 1a55 533e
00000270: 11f9 c43d 9226 80bd a18c 363e f289 ca3d
00000280: d6e5 bc3d 7360 fb3c a2b9 f33c 5a3b 66bd
00000290: 2ad5 343d ac36 6aba 023a 653b be81 263e
000002a0: 0933 f23d 29ec 963c 34eb 273d 3b7a 443e
000002b0: 0a77 fb3c 86ef a43c 84d1 d73c e141 4a3e
000002c0: 61bd 0e3e 1f22 e13b d02a bf3d 1f5f 653e
000002d0: 616c 073d 5e25 233d 4d5e 3bbd c2db 533e
000002e0: 409e 6b3e b03f d1bc a68f 853e 588d cbbd
000002f0: 165b 16bb 81d6 143e ec3e 2a3e 483a 253e
00000300: 4606 ba3d c587 7a3d 6e30 513d 0983 b6bc
00000310: 6398 393d 482a 303c e4a4 1f3e 2693 a63c
00000320: 240b 433d c109 08bc ed77 103d 57bb 6b3b
00000330: ecb2 393e 780c c13d 0910 b83d dd93 8b3e
00000340: 56a1 753e 3ad8 38bd 85ee e73c 0fad d0bd
00000350: 28fc 213d 5cab 453d 901a ca3c 4892 34bd
00000360: 5705 1dbe 6ff2 993c 1e7b f9bd 963d 9bbd
00000370: 1d48 cebd d0ae 48bd a6a7 053e 8b69 b83d
00000380: 3486 53be d250 4f3d 87e6 993e 9e12 4c3c
00000390: f7f0 9a3e fbae dabb b9ec 96bd ede5 61bc
000003a0: dc42 953e 692c dabc 1e63 19bd de5b 1d3e
000003b0: b43b 3abd ff98 a8bb c3ef 48bd 0656 2fbe
000003c0: 8800 2bbe 35c7 123e d72f 943d f1e1 2a3e
000003d0: 1a6e cf3d 733b 333d e0d6 923d e1f7 9b3e
000003e0: 00e3 433d 0ea6 483e 824e fabd 90ce 643e
000003f0: 944a a13d 6007 3dbe 2cca c9bd a018 78be

lstm.weight_hh_l0 f4 [256, 64]
0.33805194 -0.30908638 0.32434338 -0.14642747 0.1871866 0.075516805 -0.09560987 -0.05230366
-0.09712535 0.098014124 0.28933313 -0.054852776 0.034516696 0.026492748 -0.24239413 0.134206
0.05422727 0.2509668 -0.018946718 -0.15774691 -0.16180117 -0.041113973 0.01996713 -0.052651152
0.033215277 -0.26358944 -0.2825567 -0.31354883 -0.021270351 0.26371256 -0.08180963 0.10496421
0.24035625 -0.15012486 -0.47290275 0.028984908 0.00810049 0.2332415 0.19713345 -0.13674787
0.17922801 0.56288385 -0.29964727 -0.24293692 -0.1474317 0.15164372 -0.20754166 -0.3054722
0.19143051 0.31785575 -0.079900004 -0.22293554 -0.0720984 -0.4283744 -0.07426265 -0.25036845
0.0033025185 -0.11589167 0.19750133 0.16831869 0.056885395 0.26738563 -0.10691952 0.0075154877
-0.012130462 -0.37440774 0.05163142 -0.049258653 0.1406452 0.023704307 -0.0016831153 -0.17157717
-0.053307906 -0.037630074 0.040729612 0.08401114 0.016117726 0.12800817 0.22464985 -0.02218487
0.21758279 0.045041107 0.16015233 -0.09718599 0.072843276 0.016513372 0.19217227 -0.095826015
0.080680825 0.00279354 -0.15734431 0.041053966 0.10479006 0.028209576 -0.08241187 -0.37216473
0.10353582 0.19240485 -0.2714952 -0.106582396 -0.09114549 0.18600383 0.035980225 -0.16668893
-0.24352098 0.026348243 -0.09370407 0.06809211 -0.058902197 -0.0092787845 0.09900136 0.115699
0.12792361 0.043515254 -0.13798533 -0.120369904 0.018982882 -0.19285204 0.024518618 0.0009608716
0.011603425 0.04924004 -0.06463178 0.07828592 -0.053568244 0.1723113 0.007385812 -0.16717152
-0.10095414 -0.035495467 0.22944972 -0.009118597 0.2348891 0.16160731 0.019257916 -0.2889158
0.14304176 0.13262415 0.1804085 0.17515185 -0.1320681 -0.083585165 -0.25281897 -0.067152135
0.3111969 0.069272965 0.120778315 -0.25158125 -0.22332624 0.12561278 -0.26373503 -0.25273356
0.18011805 -0.088862635 -0.19621357 -0.28862152 0.21775907 0.15945844 -0.20486538 0.021495372
0.31169313 -0.0052914466 -0.26978633 0.06996518 0.19245005 -0.08875574 -0.023202976 -0.29077932
-0.06632102 0.24038537 -0.23747078 0.19087487 -0.039795425 0.175329 -0.035096236 -0.07345622
0.020336872 -0.09405833 -0.10469647 -0.13545561 -0.04847249 -0.32246178 -0.013148702 0.033854052
0.03719638 -0.10084561 0.11369758 0.147622 0.031332165 0.3064547 0.15475728 -0.042749282
0.08879607 -0.14266804 0.15736644 -0.29139444 0.16369894 0.20749217 0.061136343 0.0077956296
0.09605929 0.19134861 0.07662923 0.01882813 0.16921586 0.13492359 0.0006903097 0.16732161
0.14508632 -0.09460192 -0.06178667 -0.11824006 0.12710288 0.060804226 -0.23097476 0.19543053
-0.06672019 -0.1395209 0.013910765 -0.19437918 0.05762783 0.083759256 0.057462342 0.21810725
0.26186895 0.22040553 0.007961173 -0.10486932 -0.10021901 0.045292694 0.12964232 0.11742266
-0.20054615 -0.10814326 -0.07426745 0.035943005 0.07319886 0.20769736 -0.22170037 0.07756438
0.11833553 -0.11347486 0.052348886 0.02558997 -0.15565464 0.19322768 -0.22230256 -0.23231354
0.17888646 -0.1838311 0.073539026 0.02942762 -0.27396163 0.07320429 0.13525745 -0.18530671
00000000: 2515 ad3e 9240 9ebe 5610 a63e 15f1 15be
00000010: d8ad 3f3e 8ea8 9a3d 1ccf c3bd 5d3c 56bd
00000020: a8e9 c6bd a1bb c83d 7923 943e 4ead 60bd
00000030: 6161 0d3d 5207 d93c 2b36 78be 4c6d 093e
00000040: 6a1d 5e3d b87e 803e 2636 9bbc 6888 21be
00000050: 35af 25be 2067 28bd 1b92 a33c bca8 57bd
00000060: be0c 083d 32f5 86be 46ab 90be 7989 a0be
00000070: 293f aebc 5505 873e cf8b a7bd 7af7 d63d
00000080: f31f 763e 55ba 19be 4f20 f2be c271 ed3c
00000090: ebb7 043c dcd6 6e3e 5add 493e a207 0cbe
000000a0: 8c87 373e 2819 103f 5e6b 99be 75c4 78be
000000b0: 56f8 16be 7e48 1b3e cd85 54be da66 9cbe
000000c0: 5c06 443e fdbd a23e 9da2 a3bd 3749 64be
000000d0: 53a8 93bd e453 dbbe 0417 98bd 4b30 80be
000000e0: 116f 583b 9d58 edbd ca3d 4a3e bc5b 2c3e
000000f0: a900 693d c5e6 883e 9ff8 dabd 7b44 f63b
00000100: d8be 46bc 5fb2 bfbe 787b 533d 71c3 49bd
00000110: 4c05 103e 892f c23c fa9b dcba edb1 2fbe
00000120: 6459 5abd fe21 1abd 18d4 263d 080e ac3d
00000130: 5209 843c 9314 033e 9c0a 663e 0bbd b5bc
00000140: 06ce 5e3e 067d 383d f9fe 233e 7309 c7bd
00000150: db2e 953d 0d47 873c cfc8 443e 6e40 c4bd
00000160: fd3b a53d d313 373b de1e 21be 3428 283d
00000170: 2c9c d63d c517 e73c 8ec7 a8bd 608c bebe
00000180: 970a d43d c705 453e 6b01 8bbe df47 dabd
00000190: 7daa babd ca77 3e3e 0060 133d 81b0 2abe
000001a0: 905d 79be 45d8 d73c ebe7 bfbd e073 8b3d
000001b0: 6e43 71bd 0b06 18bc 3ac1 ca3d 99f3 ec3d
000001c0: 68fe 023e 0d3d 323d 074c 0dbe 7f84 f6bd
000001d0: fd81 9b3c 017b 45be 45db c83c 00e3 7b3a
000001e0: 4b1c 3e3c edaf 493d ab5d 84bd 5e54 a03d
000001f0: 606a 5bbd 6072 303e ae04 f23b 032f 2bbe
00000200: 0bc1 cebd b263 11bd def4 6a3e 2b66 15bc
00000210: c586 703e 637c 253e c7c2 9d3c c6ec 93be
00000220: 8a79 123e a0ce 073e 01bd 383e 025b 333e
00000230: dc3c 07be b32e abbd 7d71 81be 0f87 89bd
00000240: 3355 9f3e fcde 8d3d 9f5a f73d 42cf 80be
00000250: a2af 64be a3a0 003e 4708 87be 4b66 81be
00000260: de70 383e 9dfd b5bd 36ec 48be 33c6 93be
00000270: 3cfc 5e3e 1349 233e 3bc8 51be 1017 b03c
00000280: 3e96 9f3e df63 adbb 6f21 8abe e749 8f3d
00000290: a011 453e 92c5 b5bd 2b14 bebc 07e1 94be
000002a0: 51d3 87bd 9527 763e 8a2b 73be b474 433e
000002b0: 8700 23bd 7289 333e 12c1 0fbd 3770 96bd
000002c0: 8399 a63c a7a1 c0bd 1a6b d6bd e0b4 0abe
000002d0: 178b 46bd b619 a5be a76d 57bc 8caa 0a3d
000002e0: 3b5b 183d 2588 cebd 47da e83d 392a 173e
000002f0: 2856 003d a1e7 9c3e b178 1e3e df19 2fbd
00000300: b7da b53d 9217 12be ab24 213e a731 95be
00000310: b2a0 273e d478 543e 1a6a 7a3d 7b72 ff3b
00000320: bcba c43d e4f0 433e c9ef 9c3d 733d 9a3c
00000330: ec46 2d3e 6929 0a3e e6f5 343a 5b56 2b3e
00000340: 8291 143e a7be c1bd 0514 7dbd d827 f2bd
00000350: 4227 023e da0d 793d a684 6cbe f11e 483e
00000360: 98a4 88bd 91de 0ebe fae9 633c 560b 47be
00000370: 290b 6c3d f989 ab3d a25d 6b3d 8257 5f3e
00000380: b013 863e fdb1 613e 946f 023c bac5 d6bd
00000390: a03f cdbd d584 393d f5c0 043e 4b7b f03d
000003a0: f85b 4dbe 377a ddbd 8819 98bd f938 133d
000003b0: 49e9 953d 9eae 543e 6c05 63be 13da 9e3d
000003c0: e659 f23d 8265 e8bd c96b 563d 0fa2 d13c
000003d0: ee63 1fbe 7add 453e 48a3 63be 9ae3 6dbe
000003e0: 032e 373e 383e 3cbe a19b 963d 3112 f13c
000003f0: b344 8cbe 21ec 953d ee80 0a3e 0bc1 3dbe

lstm.bias_ih_l0 f4 [256]
-0.15822381 0.1714418 0.2232069 0.1414942 0.114098884 0.05252137 -0.14258821 0.04949797
0.051301964 0.14098093 0.2590081 0.17065993 0.05212611 0.066575944 0.027011156 0.08505207
0.12562159 -0.10350611 0.044568576 0.29804298 0.22643472 0.0047126063 0.33662897 0.15069398
0.15981075 0.15302177 0.17590319 0.1003696 -0.20048682 0.22293934 0.07720837 -0.07818518
0.15408905 0.1505117 0.27622193 0.101249896 0.033465553 -0.100788385 0.22065015 0.061059415
-0.0568181 0.14640814 0.0031038132 0.12763026 0.030301375 0.28877005 0.24103037 0.10888919
0.052120153 -0.029062891 0.012980443 -0.16535577 0.0790838 0.16958168 0.21840668 0.10020057
-0.015328117 0.28216675 -0.018729769 -0.09569107 0.17841132 0.04301935 0.1841564 0.17528836
0.026499521 0.000118269294 -0.04871047 0.18558015 0.062234167 0.16991292 0.08465834 0.106120855
0.030469865 -0.14113417 -0.027386406 -0.13990958 -0.06276349 0.03307419 0.016063228 -0.019618036
0.124652185 0.032900266 0.10715113 0.030714056 0.22664662 0.0078428015 0.10614904 0.018581321
0.034898773 -0.03151638 0.091378905 -0.11749109 0.048403054 0.037345532 -0.0108260885 -0.1210792
0.1225365 0.14282095 0.13864289 0.065452136 0.22766322 0.05448595 0.21854994 0.028717475
-0.10630586 0.045804296 -0.040881738 0.04600325 0.100241154 0.043416478 0.058272146 0.15243588
-0.05078247 -0.0005745565 0.21407771 0.11576058 0.19214039 -0.04740727 0.11657966 -0.06356973
0.10665288 -0.05937446 0.14132693 -0.03320769 0.14725931 0.14124095 0.102291234 0.15969272
0.035936154 -0.04178016 -0.16663791 0.14631458 0.044393517 0.062933944 0.009123245 -0.063445136
-0.10087339 -0.11619731 0.026380157 0.09381394 -0.033465564 -0.02230916 0.06835562 -0.09847767
-0.018495532 0.13631362 0.07413288 0.10360036 0.03473452 0.14736886 0.09951112 -0.17012891
0.03571743 0.12491469 -0.092843294 0.03897125 -0.030461218 -0.05777394 -0.06397729 0.07134419
-0.11132392 0.050278056 0.038716786 0.014231475 0.05813005 -0.061221093 -0.009835457 -0.049257997
0.021259924 0.040301498 0.025150828 -0.113413155 0.07014453 -0.12270773 0.14252546 -0.012456603
-0.016831424 -0.04424483 0.06564484 0.009439189 -0.075877905 -0.020402271 0.05031316 0.13732684
-0.07096698 0.1326694 0.01381959 -0.008992864 0.12538995 0.12343319 0.0024867856 0.14226927
0.16213138 0.21669206 0.030572766 0.11113915 0.148365 0.23007686 -0.021441996 0.1440289
0.14325567 0.2833487 0.22159961 0.14778303 0.17218582 0.05455696 0.32578674 0.298466
0.10653648 0.14474453 0.02098497 0.15433908 0.36469096 0.087737955 -0.0048106336 0.23600353
0.12652189 0.14222518 0.19448547 0.15204163 0.02848033 0.22771168 0.062069204 -0.013600229
0.12301382 0.21879944 0.41710052 0.004264993 0.21162541 0.0069497493 0.17214397 0.14295234
-0.10421229 0.20478539 0.13335459 0.20761186 -0.018618602 0.18318228 0.065785676 0.00034058036
0.23851624 -0.022989048 0.12321053 -0.04228354 0.09553581 0.10785188 0.22642247 0.16719568
-0.052067365 0.21758053 0.08831638 0.11240178 0.274527 0.05182608 0.07132885 0.08978684
00000000: 6c05 22be 708e 2f3e 5990 643e dbe3 103e
00000010: adac e93d a620 573d a502 12be 62be 4a3d
00000020: 0222 523d 4e5d 103e b69c 843e 7ac1 2e3e
00000030: 3082 553d f858 883d 8046 dd3c c82f ae3d
00000040: f2a2 003e 03fb d3bd 8a8d 363d 1799 983e
00000050: 81de 673e 356c 9a3b a25a ac3e 864f 1a3e
00000060: 6ea5 233e bdb1 1c3e f71f 343e 948e cd3d
00000070: 6b4c 4dbe 364a 643e 6c1f 9e3d 8d1f a0bd
00000080: 85c9 1d3e bd1f 1a3e f66c 8d3e 1b5c cf3d
00000090: 2d13 093d 246a cebd 1df2 613e 7019 7a3d
000000a0: 19ba 68bd 04ec 153e 5869 4b3b 82b1 023e
000000b0: 973a f83c abd9 933e aad0 763e 4c01 df3d
000000c0: f17b 553d 4d15 eebc edab 543c 0653 29be
000000d0: b0f6 a13d d2a6 2d3e 00a6 5f3e f535 cd3d
000000e0: c822 7bbc 2978 903e 2c6f 99bc aef9 c3bd
000000f0: 75b1 363e 0f35 303d 7f93 3c3e cb7e 333e
00000100: 8615 d93c 5807 f838 a184 47bd b908 3e3e
00000110: 41e9 7e3d a7fd 2d3e 5a61 ad3d e455 d93d
00000120: f09b f93c 7a85 10be 7559 e0bc 7544 0fbe
00000130: 258a 80bd cd78 073d 0897 833c 01b6 a0bc
00000140: a549 ff3d 6ec2 063d 0d72 db3d 0b9c fb3c
00000150: 0d16 683e 187f 003c ab64 d93d db37 983c
00000160: 04f2 0e3d 5217 01bd dd24 bb3d 2b9f f0bd
00000170: 4842 463d a1f7 183d e85f 31bc 5ff8 f7bd
00000180: 6bf4 fa3d a83f 123e 67f8 0d3e c50b 863d
00000190: 8c20 693e a92c 5f3d 8ecb 5f3e e940 eb3c
000001a0: e3b6 d9bd 499d 3b3d 9c73 27bd e76d 3c3d
000001b0: 3c4b cd3d 7ad5 313d c6ae 6e3d 2718 1c3e
000001c0: 4701 50bd d69d 16ba 3037 5b3e e213 ed3d
000001d0: 73c0 443e 202e 42bd 51c1 ee3d d930 82bd
000001e0: d36c da3d a232 73bd 02b8 103e c904 08bd
000001f0: 25cb 163e 78a1 103e 117e d13d 7d86 233e
00000200: ca31 133d ac21 2bbd 21a3 2abe 7dd3 153e
00000210: fad5 353d 83e3 803d aa79 153c 86ef 81bd
00000220: b596 cebd dbf8 edbd 331b d83c 8621 c03d
00000230: 3013 09bd b3c1 b6bc 08fe 8b3d a9ae c9bd
00000240: f183 97bc cc95 0b3e fbd2 973d 6d2c d43d
00000250: c945 0e3d dde7 163e 7ccc cb3d 4636 2ebe
00000260: 714c 123d 46d3 ff3d a024 bebd 51a0 1f3d
00000270: ce89 f9bc 5ea4 6cbd 8706 83bd e71c 923d
00000280: ccfd e3bd 5df0 4d3d 7e95 1e3d 222b 693c
00000290: c619 6e3d f8c2 7abd e624 21bc c1c2 49bd
000002a0: 4b29 ae3c 2f13 253d 1c09 ce3c 2845 e8bd
000002b0: efa7 8f3d 314e fbbd 32f2 113e c816 4cbc
000002c0: 0ee2 89bc 113a 35bd cd70 863d d4a6 1a3c
000002d0: e065 9bbd aa22 a7bc 2c15 4e3d 689f 0c3e
000002e0: 2357 91bd 7dda 073e 906b 623c ce56 13bc
000002f0: 3966 003e 8aca fc3d 57f9 223b 09af 113e
00000300: c505 263e 86e4 5d3e bd73 fa3c ec9c e33d
00000310: ffec 173e 4599 6b3e 20a7 afbc 507c 133e
00000320: 9db1 123e 1513 913e 02eb 623e 6f54 173e
00000330: 7b51 303e 1e77 5f3d 85cd a63e 89d0 983e
00000340: cc2f da3d e937 143e ace8 ab3c 100b 1e3e
00000350: c6b8 ba3e f5af b33d 85a2 9dbb e9aa 713e
00000360: f48e 013e 7aa3 113e 3327 473e cdb0 1b3e
00000370: 954f e93c 402d 693e 473c 7e3d 7fd3 5ebc
00000380: abee fb3d f60c 603e 338e d53e 5bc1 8b3b
00000390: 55b4 583e b9ba e33b 8246 303e 1962 123e
000003a0: 416d d5bd 43b3 513e 1b8e 083e 3498 543e
000003b0: 0a86 98bc 2394 3b3e a4ba 863d ec8f b239
000003c0: 9a3d 743e 8753 bcbc cd55 fc3d 8131 2dbd
000003d0: 47a8 c33d 72e1 dc3d 4bdb 673e 5835 2b3e
000003e0: 9744 55bd 6ecd 5e3e 38df b43d e832 e63d
000003f0: ce8e 8c3e 9547 543d dc14 923d 2ae2 b73d

lstm.bias_hh_l0 f4 [256]
0.016972078 -0.008773556 0.23071809 -0.021845676 0.19503011 0.21255659 0.0016575609 0.02923563
0.21398376 -0.021366801 0.19060011 0.17199436 0.23385905 0.17211646 0.037678182 0.06262513
-0.057496388 0.056490116 0.08054924 0.10106242 0.17037673 0.014344634 0.12493895 0.15004736
-0.037790623 0.093376815 0.0703523 0.17671157 -0.07704809 0.26232198 0.15377617 0.014740464
0.17853199 0.20179628 0.2136079 0.013613769 0.025903635 -0.02432692 0.19062592 0.17556673
-0.0919954 0.1861749 0.13976158 0.12152288 -0.02353341 0.22308236 0.083147995 0.12310195
-0.07643198 0.102770865 0.16554995 -0.03644841 0.12845427 0.23364767 0.04420177 0.17175809
-0.15094216 0.3552002 0.07045795 0.08825414 0.12709732 0.010142714 0.024704415 0.0054558585
0.10804723 0.111227274 0.116630375 0.25125295 -0.02320423 0.14460815 0.22363374 0.045662384
0.041424744 -0.0024530755 -0.05013545 -0.02596319 -0.083210476 -0.053122308 0.20645879 0.08766266
-0.06844796 0.06375417 0.14183503 0.05236563 0.14756052 0.049943298 0.20973906 0.008654875
-0.047360443 -0.11926799 0.17425252 0.01170862 -0.04276869 0.24208407 0.1393443 0.04413901
0.20159978 0.06339285 0.08552764 0.04216136 0.024439324 0.057739507 0.13423517 0.120067775
0.088024475 0.13445991 0.041092277 0.06884053 -0.016144913 0.11761874 0.037553273 0.20633627
-0.03553821 0.14440829 0.13554087 -0.058820862 0.1630276 -0.04723029 0.14827405 -0.06727281
0.013957384 0.12095826 0.009067577 -0.0293435 0.059014056 0.07854864 -0.015564563 0.20978214
0.0015692905 -0.017473327 0.011629175 0.0081718955 -0.099619195 0.011514257 -0.10625373 0.002493546
-0.09312708 0.06949579 -0.15244292 -0.013312838 -0.039554667 0.03157429 0.027120207 -0.023714053
0.10457254 0.0929487 0.09684462 0.06580482 -0.060238782 0.1492367 0.14012653 -0.0018032398
0.018333571 0.019942366 -0.06768662 0.19456661 -0.029513523 -0.037825167 -0.025452957 -0.09353603
-0.105189785 -0.088871315 0.06218041 -0.17656535 -0.041001745 0.02639501 -0.07866059 -0.17966262
-0.044653323 -0.0049522747 0.0012178578 -0.044910327 -0.07823714 -0.12745477 0.19110635 -0.07675214
0.0028202296 0.06356109 -0.08065132 0.025858913 0.09044404 -0.14574936 0.19671334 -0.06072068
0.044086564 0.19131796 -0.10685426 0.07366806 0.13842706 0.13858767 -0.11644845 0.13808005
0.032742433 0.18717822 0.14785534 0.11512585 0.1652052 0.33366957 0.21391247 0.037236363
0.19750683 0.19820511 0.20817184 0.10458421 0.27578506 0.07030173 0.29311058 0.15601924
-0.031371843 0.15884046 -0.012988095 0.22602344 0.31074432 -0.0014080682 0.070880726 0.16874693
0.14906895 0.15685439 0.060338117 0.16160087 -0.0006624346 0.13649596 0.14460607 0.09980554
0.048433628 0.07608001 0.3593968 0.11668032 0.17529394 0.09569561 0.2512531 0.051207494
0.05636524 0.01730707 0.08491536 0.064049274 0.11146531 0.18774386 0.078641444 0.011789787
0.101205446 0.0572689 0.14558432 0.033735923 0.2093433 0.20808524 0.11345365 0.21365166
-0.057722714 0.307514 0.2065252 -0.059722506 0.20531975 0.014051747 0.009299801 0.04502069
00000000: 0709 8b3c f6be 0fbc 5d41 6c3e b4f5 b2bc
00000010: f9b5 473e 6fa8 593e 8442 d93a 8f7f ef3c
00000020: 8f1e 5b3e 6e09 afbc ad2c 433e 4a1f 303e
00000030: bf78 6f3e 4c3f 303e 7054 1a3d 9b41 803d
00000040: 5581 6bbd 2e62 673d 00f7 a43d d0f9 ce3d
00000050: 3d77 2e3e c105 6b3c fedf ff3d 04a6 193e
00000060: 57ca 1abd 583c bf3d de14 903d e1f3 343e
00000070: 64cb 9dbd 114f 863e 8077 1d3e fd81 713c
00000080: 17d1 363e afa3 4e3e 08bc 5a3e 490c 5f3c
00000090: dc33 d43c 4049 c7bc 7133 433e c4c7 333e
000000a0: 1668 bcbd a2a4 3e3e a91d 0f3e fde0 f83d
000000b0: 23c9 c0bc b46f 643e 7f49 aa3d e01c fc3d
000000c0: 5f88 9cbd 8879 d23d ed85 293e ee4a 15bd
000000d0: 8489 033e 5641 6f3e ea0c 353d 5ae1 2f3e
000000e0: 9590 1abe cddc b53e 424c 903d 96be b43d
000000f0: cd25 023e a02d 263c ea60 ca3c 0fc7 b23b
00000100: de47 dd3d 20cb e33d e8db ee3d 3aa4 803e
00000110: cc16 bebc 2914 143e 3e00 653e 7b08 3b3d
00000120: feac 293d c7c3 20bb d45a 4dbd c1b0 d4bc
00000130: 416a aabd c796 59bd ef69 533e 7b88 b33d
00000140: 722e 8cbd 8c91 823d 343d 113e 587d 563d
00000150: 1b1a 173e 5891 4c3d d6c5 563e 2dcd 0d3c
00000160: 06fd 41bd c742 f4bd 416f 323e 83d5 3f3c
00000170: 392e 2fbd e3e4 773e 46b0 0e3e 1bcb 343d
00000180: 2c70 4e3e 1cd4 813d 1e29 af3d 64b1 2c3d
00000190: fa34 c83c 4380 6c3d f274 093e 18e6 f53d
000001a0: 2d46 b43d dcaf 093e 6050 283d 44fc 8c3d
000001b0: 5642 84bc 18e2 f03d 76d1 193d d149 533e
000001c0: 8490 11bd c4df 133e 3acb 0a3e 25ee 70bd
000001d0: b5f0 263e 8c74 41bd 27d5 173e 54c6 89bd
000001e0: 83ad 643c f7b8 f73d 2d90 143c c861 f0bc
000001f0: b9b8 713d 1cde a03d 8202 7fbc 21d1 563e
00000200: a7b0 cd3a 3924 8fbc 4c88 3e3c 6ae3 053c
00000210: 2605 ccbd 4ba6 3c3c 8e9b d9bd c36a 233b
00000220: 69b9 bebd cf53 8e3d ff19 1cbe 171e 5abc
00000230: 1304 22bd 0b54 013d 322b de3c f943 c2bc
00000240: 212a d63d e35b be3d 7956 c63d adc4 863d
00000250: f1bc 76bd 81d1 183e 547d 0f3e b05a ecba
00000260: 4930 963c 2c5e a33c 489f 8abd 783c 473e
00000270: 58c6 f1bc 90ee 1abd b882 d0bc d18f bfbd
00000280: be6d d7bd 2a02 b6bd e3b0 7e3d 8ccd 34be
00000290: 72f1 27bd 593a d83c ce18 a1bd 7af9 37be
000002a0: 67e6 36bd b146 a2bb 87a0 9f3a e4f3 37bd
000002b0: cb3a a0bd 8183 02be 62b1 433e 3a30 9dbd
000002c0: 9ad3 383b 512c 823d 852c a5bd 12d6 d33c
000002d0: ba3a b93d 523f 15be 396f 493e 3fb6 78bd
000002e0: 1d94 343d dbe8 433e 68d6 dabd 48df 963d
000002f0: d3bf 0d3e ede9 0d3e 867c eebd db64 0d3e
00000300: ee1c 063d a6ab 3f3e 6467 173e 1ac7 eb3d
00000310: 8d2b 293e bdd6 aa3e df0b 5b3e 2885 183d
00000320: 3b3f 4a3e 48f6 4a3e 002b 553e 3f30 d63d
00000330: b333 8d3e 5afa 8f3d 9712 963e 82c3 1f3e
00000340: c37f 00bd 13a7 223e 05cc 54bc b072 673e
00000350: e119 9f3e ee8e b8ba ea29 913d ffcb 2c3e
00000360: 88a5 183e 709e 203e 1a25 773d b37a 253e
00000370: 3ca7 2dba 99c5 0b3e 9d13 143e d966 cc3d
00000380: 5762 463d d6cf 9b3d db02 b83e 17f6 ee3d
00000390: 4180 333e 0ffc c33d 3fa4 803e f3be 513d
000003a0: 3ddf 663d 8ec7 8d3c 1be8 ad3d 442c 833d
000003b0: ed47 e43d ed3f 403e c40e a13d f329 413c
000003c0: cd44 cf3d cb92 6a3d 0e14 153e ae2e 0a3d
000003d0: 175e 563e 4c14 553e 635a e83d 80c7 5a3e
000003e0: a76e 6cbd 7a72 9d3e 587b 533e 969f 74bd
000003f0: 573f 523e 4c39 663c 315e 183c 9d67 383d

lstm.weight_ih_l0_reverse f4 [256, 6]
0.584796 0.5753414 -0.6156352 0.6338442 0.5194754 0.4033013 0.00368135 0.22837205
-0.16769809 0.17361489 0.24848102 0.009178747 0.15415484 0.03652597 -0.3029331 0.17752539
0.040606562 -0.08212675 -0.0061184666 0.059197985 -0.13761634 0.14572366 0.037094716 0.039470773
0.118233375 0.3286208 -0.38302997 0.27256438 0.20343474 0.21347018 0.45733508 0.4823623
-0.60769904 0.44213068 0.71699667 0.257135 0.033044223 0.0019066154 -0.16106193 0.18479815
0.3689967 -0.053353578 -0.13423702 0.1531191 -0.07948084 -0.06968604 0.0732482 -5.1458217e-05
-0.082007214 -0.38668337 0.38081712 -0.32320076 -0.11522963 -0.056861255 0.24292377 0.33760476
-0.41013452 0.2295464 0.1082612 0.09284601 0.041090045 -0.11689003 -0.08249687 0.03237922
0.15022165 -0.078625575 0.10936575 -0.09449969 -0.022406794 -0.04332157 -0.022112707 0.023422655
0.24568258 0.5220577 -0.5347587 0.53558475 0.29224744 0.18174332 0.16097143 0.4524905
-0.3290326 0.37543845 0.2829472 0.122686744 0.2637397 0.28640008 -0.20113601 0.40199974
0.19461563 0.07871958 0.25124347 0.19741985 -0.27457818 0.25901774 0.4249227 0.23190929
0.10770071 0.115720525 -0.1822811 0.16704734 0.40532666 -0.016929166 0.27764872 0.3112363
-0.41599756 0.2285599 0.30328205 0.047387548 0.20254672 0.20741837 -0.37213573 0.3476276
0.44292384 0.11241525 -0.037028488 -0.08438863 0.10916527 -0.18235825 -0.12469595 -0.022782695
0.394266 0.3682279 -0.3866849 0.4096253 0.4637895 0.07017532 0.5225821 0.73178643
-0.50692934 0.71214426 0.6648346 0.35920185 0.07405818 0.19647016 -0.040445022 0.21121244
0.08498315 0.15315264 -0.12879623 -0.22886734 0.2663688 -0.36589643 0.10455098 -0.05526646
0.31480268 0.4054373 -0.4083741 0.35123435 0.5327517 0.08823592 0.069685325 -0.13492416
0.16420431 -0.1556609 -0.124478936 0.059638023 -0.12912267 0.0064536375 0.06999632 0.08302257
0.045797374 0.024479289 -0.01896086 -0.28693765 0.20808952 -0.38442233 -0.1996381 -0.0686673
0.26823875 0.46194223 -0.48675597 0.51598567 0.6270289 0.3099721 -0.093286775 0.09014501
-0.08423856 0.008771653 0.14650394 -0.037147116 0.39273873 0.3672769 -0.3325827 0.30633646
0.33122292 0.20452537 0.596795 0.7177658 -0.66443735 0.75177485 0.7372537 0.41472426
0.346126 0.5032835 -0.4088675 0.57786447 0.58692795 0.36589745 0.28015804 0.35424468
-0.33660346 0.3943522 0.42546704 -0.00891765 0.023429252 -0.117809504 0.25871205 -0.031163901
-0.034294914 -0.091170006 0.20308058 0.1260127 -0.1387279 0.055275794 0.39565998 -0.06911645
-0.0008206981 0.12634654 -0.14280565 0.14517194 0.64933556 0.14355883 0.4317313 0.6594401
-0.4165708 0.48022088 0.49685588 0.34530622 -0.063574366 -0.16722065 0.015679797 -0.171298
-0.021381812 -0.14075565 0.2699763 0.2649827 -0.19190392 0.33360133 0.58906555 0.34115422
0.28049287 0.45734632 -0.23854613 0.39615148 0.30759573 0.14349395 0.39259544 0.4280852
-0.43398625 0.33986235 0.6928547 0.40087292 0.27343196 0.42764905 -0.17844684 0.38664928
00000000: 31b5 153f 9349 133f 459a 1dbf 9d43 223f
00000010: 57fc 043f 827d ce3e ce42 713b 5dda 693e
00000020: 0cb9 2bbe 1ac8 313e cf71 7e3e 7562 163c
00000030: c4da 1d3e 419c 153d 0c1a 9bbe 37c9 353e
00000040: 1153 263d 1232 a8bd 6b7d c8bb 9679 723d
00000050: 4ceb 0cbe 9538 153e a1f0 173d 1bac 213d
00000060: 5724 f23d fc40 a83e 811c c4be 8f8d 8b3e
00000070: 3251 503e ed97 5a3e d327 ea3e 31f8 f63e
00000080: 2a92 1bbf f45e e23e 188d 373f 33a7 833e
00000090: 6159 073d 66e7 f93a 6bed 24be ba3b 3d3e
000000a0: 23ed bc3e 4889 5abd 6e75 09be 41cb 1c3e
000000b0: dac6 a2bd 8eb7 8ebd 2703 963d d7d4 57b8
000000c0: 66f3 a7bd 5dfb c5be 76fa c23e 927a a5be
000000d0: 83fd ebbd 59e7 68bd 02c1 783e 88da ac3e
000000e0: 27fd d1be 360e 6b3e 0cb8 dd3d 0d26 be3d
000000f0: 094e 283d 0a64 efbd 1ef4 a8bd 13a0 043d
00000100: b4d3 193e 7206 a1bd 26fb df3d 0e89 c1bd
00000110: 748e b7bc f571 31bd b525 b5bc dee0 bf3c
00000120: 3794 7b3e 93a5 053f f2e5 08bf 151c 093f
00000130: 75a1 953e ec1a 3a3e b2d5 243e d6ac e73e
00000140: f676 a8be 7839 c03e 75de 903e 3043 fb3d
00000150: e408 873e 08a3 923e 99f6 4dbe e9d2 cd3e
00000160: 5249 473e bb37 a13d fca2 803e 6e28 4a3e
00000170: 8395 8cbe f99d 843e 788f d93e a179 6d3e
00000180: 3192 dc3d e2fe ec3d e6a7 3abe 750e 2b3e
00000190: fa86 cf3e 09af 8abc f927 8e3e 5d5a 9f3e
000001a0: a2fd d4be 9b0b 6a3e c947 9b3e 7219 423d
000001b0: 6868 4f3e 7b65 543e 9388 bebe 3ffc b13e
000001c0: eac6 e23e f739 e63d 2fab 17bd f2d3 acbd
000001d0: 0b92 df3d 1fbc 3abe 9760 ffbd c6a2 babc
000001e0: 3cdd c93e 5e88 bc3e 90fb c5be 68ba d13e
000001f0: d175 ed3e 14b8 8f3d f1c7 053f 5b56 3b3f
00000200: 1fc6 01bf 164f 363f 9a32 2a3f 4ee9 b73e
00000210: d1ab 973d 792f 493e aea9 25bd 1348 583e
00000220: a50b ae3d 0cd4 1c3e 29e3 03be 335c 6abe
00000230: 7e61 883e c756 bbbe d31e d63d 155f 62bd
00000240: d12d a13e 7a95 cf3e 6916 d1be fdd4 b33e
00000250: 6a62 083f 09b5 b43d 2eb7 8e3d 8f29 0abe
00000260: 2d25 283e 9265 1fbe d0ee febd 0047 743d
00000270: bc38 04be 0979 d33b 3b5a 8f3d bd07 aa3d
00000280: 0796 3b3d ca88 c83c ce53 9bbc 7ee9 92be
00000290: 6b15 553e 01d3 c4be ee6d 4cbe 71a1 8cbd
000002a0: 9756 893e b183 ec3e 1438 f9be a317 043f
000002b0: f784 203f aab4 9e3e 230d bfbd f29d b83d
000002c0: 4485 acbd fbb6 0f3c 2105 163e 9327 18bd
000002d0: 0d15 c93e b80b bc3e 4848 aabe 22d8 9c3e
000002e0: 0d96 a93e 196f 513e 8fc7 183f 80bf 373f
000002f0: 9118 2abf 5174 403f a9bc 3c3f bd56 d43e
00000300: 6d37 b13e 30d7 003f 1557 d1be edee 133f
00000310: e940 163f e956 bb3e e070 8f3e 8f5f b53e
00000320: 4a57 acbe 88e8 c93e d1d6 d93e 561b 12bc
00000330: b4ee bf3c 1c46 f1bd e875 843e 704b ffbc
00000340: d378 0cbd 57b7 babd 5bf4 4f3e 7909 013e
00000350: b00e 0ebe df68 623d f293 ca3e ed8c 8dbd
00000360: 1e24 57ba fd60 013e a53b 12be f4a7 143e
00000370: db3a 263f 1601 133e e30b dd3e 11d1 283f
00000380: c548 d5be 83df f53e e563 fe3e facb b03e
00000390: 4733 82bd e43b 2bbe eb72 803c be68 2fbe
000003a0: e928 afbc 4022 10be 553a 8a3e d0ab 873e
000003b0: 7682 44be cbcd aa3e 00cd 163f c4ab ae3e
000003c0: c39c 8f3e 4c29 ea3e 7045 74be 5ed4 ca3e
000003d0: 307d 9d3e 14f0 123e 4502 c93e fc2d db3e
000003e0: 7233 debe 7002 ae3e ed5e 313f 373f cd3e
000003f0: 46ff 8b3e d1f4 da3e c5ba 36be e5f6 c53e

lstm.weight_hh_l0_reverse f4 [256, 64]
0.060377434 0.056375712 0.0631592 0.10677703 -0.026770383 0.02591516 -0.05943775 -0.12403336
-0.047795355 -0.020750493 -0.065394655 -0.12213178 -0.011539787 -0.032126516 -0.0724446 0.0371197
0.12163578 -0.10900016 0.07833487 0.05319105 0.036611244 0.11240241 0.0694761 0.08028725
-0.031200945 0.08090156 0.122563586 -0.09862724 -0.017945692 0.08854225 0.09705776 0.04633896
0.10158652 -0.11505371 0.0021207333 0.046830118 0.052405655 -0.0681645 0.05481088 -0.060745314
-0.04638262 -0.075883016 -0.1247907 0.08067183 -0.10181007 -0.062140346 -0.022390738 -0.02152811
-0.059757903 -0.08669914 0.050340623 0.08948088 0.05052392 0.08011781 0.016429707 -0.11888784
-0.08983265 -0.035984978 0.028505176 0.014695704 -0.013136044 0.00399895 -0.00877893 -0.030942991
-0.1117776 0.015141591 -0.055658832 0.053006813 0.099438965 -0.04138945 0.07190323 0.019973636
0.112633914 -0.10748124 0.11932036 0.051094696 -0.068522334 0.029736578 -0.07911067 -0.042483658
-0.047234178 -0.10113394 -0.10989916 -0.052288517 0.07104322 -0.0081217885 -0.042370126 0.040513024
0.063482046 -0.01589118 -0.016019553 -0.052188143 0.059760913 -0.043928638 0.0774606 -0.063307464
-0.05874367 0.016995788 0.07505807 0.059928805 -0.09602827 0.022808403 -0.003125742 -0.034708902
-0.03509991 -0.07586858 0.11408146 0.12388559 -0.0231027 0.033647135 0.029692173 -0.11116442
0.028734952 0.10165776 0.06219989 -0.032295212 0.11750585 0.121140465 0.04787846 -0.056856096
0.025042728 -0.11679128 0.028511837 -0.062104404 0.11055893 -0.041420087 -0.058974087 -0.10602559
0.03645712 0.0074732304 -0.05990766 0.017415404 0.045312375 -0.052740842 -0.01607652 -0.10222341
-0.072642595 0.03995143 0.04451853 0.11075391 0.10474007 -0.05208452 0.07689799 -0.060612917
-0.091041654 -0.11120531 -0.0894223 0.09972565 0.0362702 -0.043628246 0.03846614 0.075332165
-0.0020861328 0.043658018 -0.013793394 0.095501736 -0.019144401 -0.08683145 0.09151073 0.103024065
0.017415032 0.09265065 -0.08667567 0.021764562 0.0927452 -0.097980365 -0.047054484 -0.0028603375
-0.10548052 -0.09271 0.05623284 0.028360918 -0.121811524 0.0030251741 -0.082674146 -0.025501803
0.12399405 0.015065312 -0.020624101 0.06434734 -0.037890628 -0.017083332 -0.018005177 0.008539498
0.0815855 0.026907295 0.08573228 -0.049596637 -0.10752918 -0.021435007 -0.014109001 -0.110593036
-0.05899006 -0.11496 -0.012729153 -0.12307371 -0.121097356 0.07519117 -0.052771866 -0.114026755
0.013484046 0.004590571 -0.01705511 0.027757779 0.09604193 0.12012084 0.0056010187 -0.12390791
0.06880455 0.10692233 -0.04565841 0.06307392 -0.006944418 -0.06726307 -0.057498246 0.043330804
-0.093215436 -0.091867745 0.10638146 0.042567194 0.0020284057 -0.095466524 -0.1046073 0.053769797
0.028222367 -0.07355519 -0.0043931454 -0.12249154 0.029637054 0.021641597 -0.011547536 -0.09065132
-0.065762416 -0.035462916 0.105277866 -0.0025274009 -0.06955223 0.09324731 -0.005122483 -0.045513183
0.08601424 0.122920245 0.013874158 0.005218804 0.08097929 -0.100975186 0.12131514 0.008897305
-0.08864729 0.021070018 -0.06577785 -0.046403825 0.09541048 0.09941393 -0.020731151 -0.10829778
00000000: 544e 773d 38ea 663d 9c59 813d eaad da3d
00000010: 904d dbbc 084c d43c 0075 73bd 3405 febd
00000020: 10c5 43bd f0fc a9bc a2ed 85bd 3a20 fabd
00000030: 6011 3dbc 1897 03bd d65d 94bd d40a 183d
00000040: 2e1c f93d 7a3b dfbd 086e a03d dcde 593d
00000050: acf5 153d 3c33 e63d 7c49 8e3d a46d a43d
00000060: 2099 ffbc b8af a53d 9e02 fb3d 14fd c9bd
00000070: d802 93bc a455 b53d 38c6 c63d eccd 3d3d
00000080: 980c d03d 48a1 ebbd 00fc 0a3b f0d0 3f3d
00000090: 50a7 563d d499 8bbd 6081 603d 14d0 78bd
000000a0: b4fb 3dbd 8e68 9bbd 4492 ffbd 4637 a53d
000000b0: cc81 d0bd e086 7ebd c86c b7bc b85b b0bc
000000c0: b4c4 74bd 528f b1bd f831 4e3d c041 b73d
000000d0: 2cf2 4e3d ce14 a43d 9897 863c 787b f3bd
000000e0: 2efa b7bd fc64 13bd b083 e93c 40c6 703c
000000f0: 9038 57bc a009 833b 80d5 0fbc 287c fdbc
00000100: a8eb e4bd 7014 783c 84fa 63bd ac1d 593d
00000110: a8a6 cb3d fc87 29bd 0042 933d c09f a33c
00000120: 9cac e63d 201f dcbd 3c5e f43d ac48 513d
00000130: 7055 8cbd 209a f33c c604 a2bd 5803 2ebd
00000140: a078 41bd 501f cfbd d012 e1bd 7c2c 56bd
00000150: 1c7f 913d 4011 05bc 4c8c 2dbd fcf0 253d
00000160: e002 823d 382e 82bc 703b 83bc 3cc3 55bd
00000170: dcc7 743d 84ee 33bd aaa3 9e3d 58a7 81bd
00000180: 349d 70bd c03a 8b3c 0cb8 993d e877 753d
00000190: 78aa c4bd b0d8 ba3c 40d9 4cbb ec2a 0ebd
000001a0: ecc4 0fbd fc60 9bbd 8aa3 e93d bab7 fd3d
000001b0: e041 bdbc 94d1 093d 003d f33c 2caa e3bd
000001c0: 9065 eb3c f231 d03d 50c5 7e3d fc47 04bd
000001d0: e8a6 f03d 7e18 f83d 341c 443d f0e1 68bd
000001e0: 6826 cd3c 4430 efbd a891 e93c 3061 7ebd
000001f0: b86c e23d 1ca8 29bd d08e 71bd f223 d9bd
00000200: 1054 153d 00e2 f43b bc61 75bd c0aa 8e3c
00000210: 7899 393d c806 58bd e8b2 83bc 825a d1bd
00000220: a4c5 94bd 1ca4 233d 1059 363d f2d2 e23d
00000230: f681 d63d 9456 55bd b27c 9d3d 4045 78bd
00000240: 0c74 babd 9cbf e3bd 0a23 b7bd f63c cc3d
00000250: 1090 143d 88b3 32bd ac8e 1d3d c047 9a3d
00000260: 80b7 08bb c0d2 323d b0fd 61bc 6a96 c33d
00000270: b8d4 9cbc b0d4 b1bd fa69 bb3d 48fe d23d
00000280: f8a9 8e3c a0bf bd3d 0483 b1bd 984b b23c
00000290: 32f1 bd3d eea9 c8bd 34bc 40bd 8074 3bbb
000002a0: 2c06 d8bd bede bdbd 6854 663d 2855 e83c
000002b0: 5278 f9bd 0042 463b 1051 a9bd 28e9 d0bc
000002c0: 98f0 fd3d 80d4 763c e0f3 a8bc 8ac8 833d
000002d0: 3433 1bbd 58f2 8bbc 987f 93bc 40e9 0b3c
000002e0: 4c16 a73d b06c dc3c 6894 af3d d825 4bbd
000002f0: 4238 dcbd 7898 afbc 7029 67bc 9a7e e2bd
00000300: 909f 71bd 2670 ebbd f08d 50bc 120e fcbd
00000310: e401 f8bd d4fd 993d 5027 58bd dc86 e9bd
00000320: 30ec 5c3c 806c 963b 28b7 8bbc 4864 e33c
00000330: a2b1 c43d ea01 f63d c088 b73b 6ec3 fdbd
00000340: 66e9 8c3d 18fa da3d 5004 3bbd e62c 813d
00000350: 008e e3bb 38c1 89bd 4883 6bbd a47b 313d
00000360: bce7 bebd 2825 bcbd 86de d93d f05a 2e3d
00000370: 00ef 043b f483 c3bd 5a3c d6bd b83d 5c3d
00000380: 9832 e73c 1aa4 96bd 60f4 8fbb d8dc fabd
00000390: 68c9 f23c b849 b13c e031 3dbc 66a7 b9bd
000003a0: 72ae 86bd 9041 11bd ec9b d73d c0a2 25bb
000003b0: 6671 8ebd 72f8 be3d 80da a7bb 086c 3abd
000003c0: 3c28 b03d 9cbd fb3d 7050 633c 8002 ab3b
000003d0: 78d8 a53d 14cc cebd 1274 f83d 00c6 113c
000003e0: b68c b5bd 089b ac3c 8ab6 86bd f011 3ebd
000003f0: 9266 c33d 8899 cb3d 60d4 a9bc 3acb ddbd

lstm.bias_ih_l0_reverse f4 [256]
0.20666106 -0.06089382 -0.027937297 -0.11144305 0.14193557 0.5179134 0.116401576 -0.09258502
0.29057458 0.1075008 0.17210895 0.13351597 0.22686128 0.17171486 0.28737414 0.42432648
0.09269148 0.34814268 0.069152005 -0.10732702 0.26598495 0.52335846 -0.02206377 0.13118882
0.29118598 -0.078248166 -0.09512374 -0.010675387 0.55454695 0.10458767 0.08927834 0.3073071
0.3968469 0.22850195 0.09035137 0.124796994 0.27978623 0.5008358 -0.051589966 0.45459926
0.26573232 0.4965229 0.24182081 0.048913717 0.22943687 0.10648879 0.06434027 0.02642218
0.17485662 0.0295133 -0.0857637 0.08863959 0.09435289 0.12243542 0.01130425 0.083764605
0.07502161 0.48830572 -0.043916088 0.0815239 -0.049813896 0.4462376 -0.120039605 0.05313574
-0.00910221 0.034654617 -0.0720415 0.044434518 -0.119760185 0.09844415 -0.054139808 0.042758897
-0.00075924397 -0.031697646 -0.0950903 0.10539648 0.071519986 0.10412787 -0.03753127 0.07141337
0.06720585 -0.09764223 -0.043698028 0.089644834 0.09769566 -0.07923114 0.058735058 -0.0531739
-0.058765277 0.060799554 0.036317006 0.096787125 -0.07430987 -0.0018185973 -0.12091988 -0.09145604
0.05095613 -0.08662905 0.014434457 0.030181855 -0.033898085 0.044830307 -0.040318638 0.11485243
-0.0154854655 0.0046930015 -0.040837616 0.0861254 -0.121507615 -0.10454641 0.0906668 -0.05751045
0.07020146 0.041977003 0.039207354 -0.117668465 0.061237186 -0.020416886 -0.012668982 -0.014747202
0.045252725 0.011109874 0.030013159 0.11598572 -0.029231682 0.045899853 0.031241715 -0.034105808
-0.1108032 0.042926796 0.052546225 0.04386917 0.13039505 0.15143262 0.15967607 -0.029777193
0.18263805 0.031239945 0.00067547127 -0.17509045 -0.053422634 0.17627995 -0.26299068 0.12779376
-0.06994343 -0.3355728 0.21134067 -0.10514846 -0.20931229 -0.027769335 0.14159544 0.18791689
-0.1736867 0.12648806 -0.05289964 -0.037567705 0.24067245 0.22631826 -0.028141392 0.2664268
-0.1940968 0.20385803 -0.0069266288 0.0631925 -0.17341976 0.31587514 0.06619793 -0.37662637
-0.10890226 -0.28258535 -0.1923856 0.00045124616 -0.09811522 0.077148765 -0.0473268 0.028997399
0.05324539 0.015065665 0.08871305 -0.06914932 0.071390904 -0.21494526 0.023052938 -0.12760648
0.28311253 -0.25838637 -0.03884728 -0.09578023 0.1688767 -0.14322712 -0.06670628 -0.20407175
0.28474376 -0.05173715 -0.071644545 -0.0810315 0.09532936 0.5337023 0.06950582 -0.03160719
0.16629796 -0.013522404 0.093013234 -0.015541153 0.057362694 0.09119677 0.22835518 0.36516988
0.1766358 0.36384037 0.13430616 0.057552386 0.34263748 0.56487393 -0.048433576 0.029300725
0.21230936 0.07166281 -0.13118725 0.1497679 0.45754093 0.1577816 0.14196983 0.34508184
0.48688552 0.21037768 0.024566127 0.107062295 0.34925896 0.63775927 -0.02661088 0.4966373
0.3512502 0.61812943 0.28010237 -0.058210205 0.008122158 0.10377674 -0.04753229 -0.087277904
-0.043566093 -0.014959267 0.086434916 0.08893316 0.15617786 -0.066408396 -0.009679439 0.041405246
0.04617338 0.38433486 -0.01337216 0.24106164 -0.032956876 0.58324176 0.0022246824 0.15948957
00000000: f59e 533e cc6b 79bd c2dc e4bc 413c e4bd
00000010: 8f57 113e f995 043f f363 ee3d 379d bdbd
00000020: 31c6 943e 6129 dc3d 543d 303e 69b8 083e
00000030: 534e 683e 05d6 2f3e b422 933e 5241 d93e
00000040: 08d5 bd3d c23f b23e 919f 8d3d 45ce dbbd
00000050: 2e2f 883e d2fa 053f 14bf b4bc 5d56 063e
00000060: 5416 953e 9340 a0bd 3cd0 c2bd d2e7 2ebc
00000070: caf6 0d3f 0f32 d63d 90d7 b63d 5b57 9d3e
00000080: 842f cb3e 6afc 693e 240a b93d 9195 ff3d
00000090: 2440 8f3e c636 003f 0050 53bd 3cc1 e83e
000000a0: 110e 883e 4038 fe3e e09f 773e c059 483d
000000b0: 80f1 6a3e cb16 da3d d5c4 833d 5473 d83c
000000c0: 9d0d 333e e0c5 f13c e1a4 afbd ac88 b53d
000000d0: 173c c13d 6cbf fa3d 7635 393c c78c ab3d
000000e0: eea4 993d 3503 fa3e 5be1 33bd 01f6 a63d
000000f0: a809 4cbd 4179 e43e 53d7 f5bd dda4 593d
00000100: 7021 15bc 00f2 0d3d 7e8a 93bd f800 363d
00000110: d444 f5bd 169d c93d b4c1 5dbd f423 2f3d
00000120: 0008 47ba 64d5 01bd b4be c2bd 1cda d73d
00000130: 1279 923d fe40 d53d 64ba 19bd 2c41 923d
00000140: 38a3 893d a6f8 c7bd b4fc 32bd b697 b73d
00000150: aa14 c83d f043 a2bd 2c94 703d e0cc 59bd
00000160: dcb3 70bd f408 793d 24c1 143d 5438 c63d
00000170: c62f 98bd 005e eeba d8a4 f7bd 4e4d bbbd
00000180: 60b7 503d 926a b1bd 807e 6c3c f03f f73c
00000190: b8d8 0abd fc9f 373d 2825 25bd c037 eb3d
000001a0: c0b6 7dbc c0c7 993b 5845 27bd 8462 b03d
000001b0: fcd8 f8bd 6e1c d6bd 84af b93d 1490 6bbd
000001c0: c8c5 8f3d 14f0 2b3d e497 203d 2afc f0bd
000001d0: d8d3 7a3d 5041 a7bc 9091 4fbc 409e 71bc
000001e0: ec5a 393d 3006 363c 28de f53c ec89 ed3d
000001f0: 4877 efbc 7c01 3c3d a0ee ff3c 88b2 0bbd
00000200: caec e2bd 02d4 2f3d b63a 573d 29b0 333d
00000210: 4886 053e 2711 1b3e 2082 233e 4def f3bc
00000220: 7805 3b3e eaea ff3c 1c12 313a e94a 33be
00000230: b1d1 5abd bb82 343e b7a6 86be 5edc 023e
00000240: 803e 8fbd 33d0 abbe b069 583e 1358 d7bd
00000250: f655 56be 847c e3bc 65fe 103e 496d 403e
00000260: edda 31be 1686 013e 4bad 58bd 98e0 19bd
00000270: d772 763e f9bf 673e c788 e6bc 1869 883e
00000280: 50c1 46be 29c0 503e c6f8 e2bb 126b 813d
00000290: f394 31be 63ba a13e c892 873d 2cd5 c0be
000002a0: 2608 dfbd 07af 90be bb00 45be 3c95 ec39
000002b0: a2f0 c8bd 2c00 9e3d bfd9 41bd f48b ed3c
000002c0: d717 5a3d fbd5 763c 30af b53d 299e 8dbd
000002d0: 6535 923d 9c1a 5cbe 84d9 bc3c 46ab 02be
000002e0: 20f4 903e 384b 84be 531e 1fbd 6d28 c4bd
000002f0: 03ee 2c3e 21aa 12be 4d9d 88bd 2ff8 50be
00000300: efc9 913e 55ea 53bd 60ba 92bd d8f3 a5bd
00000310: 0a3c c33d b7a0 083f 1159 8e3d 8a76 01bd
00000320: 034a 2a3e 138d 5dbc b97d be3d 52a0 7ebc
00000330: 25f5 6a3d 5fc5 ba3d f1d5 693e 8cf7 ba3e
00000340: 04e0 343e 4949 ba3e 8e87 093e 0dbc 6b3d
00000350: 2e6e af3e 949b 103f 4962 46bd 1308 f03c
00000360: a067 593e f4c3 923d f355 06be c25c 193e
00000370: ce42 ea3e 8091 213e 8a60 113e 91ae b03e
00000380: 0f49 f93e 3f6d 573e e73e c93c 7a43 db3d
00000390: 12d2 b23e 3144 233f 0fff d9bc 3f47 fe3e
000003a0: 11d7 b33e bb3d 1e3f 9469 8f3e d36d 6ebd
000003b0: cd12 053c e688 d43d 38b1 42bd c2be b2bd
000003c0: 5c72 32bd b717 75bc ca04 b13d 9722 b63d
000003d0: 17ed 1f3e 2001 88bd 8296 1ebc 8c98 293d
000003e0: 4c20 3d3d 8ac7 c43e e716 5bbc ddd8 763e
000003f0: cafd 06bd 554f 153f facb 113b 3c51 233e

lstm.bias_hh_l0_reverse f4 [256]
0.19839738 -0.019215994 0.101570815 -0.06787784 -0.023170698 0.50782496 0.19065636 -0.091427855
0.08801355 -0.055364545 0.13053685 0.009689083 0.14527334 0.1291282 0.2733071 0.5303345
0.13063087 0.23687235 0.12969473 -0.1380982 0.39313215 0.63914484 -0.008383041 0.050904293
0.13620909 -0.12082424 -0.13224551 0.12308496 0.3882474 0.2636701 0.05515598 0.35882875
0.57434237 0.2730765 0.007825568 0.13975298 0.31605452 0.6419294 -0.08304364 0.431463
0.20361963 0.5088472 0.18154171 0.055910945 0.10281662 0.08308197 -0.08700857 0.0511784
0.087692305 0.038275454 0.044053122 0.09526643 0.0057938085 -0.021836061 0.11930623 0.12555018
0.056661125 0.58025646 0.0028755574 0.028485047 0.004506249 0.39325288 0.039269976 0.25761744
0.01933828 0.08134262 -0.028524518 -0.043391213 0.0018038303 0.07049249 0.08720033 -0.02677852
0.0072034 -0.036875248 -0.0023123175 -0.031560898 0.007740155 -0.11215788 -0.055575803 -0.023538664
0.02770421 -0.09975171 0.04315485 -0.114900276 -0.041105732 0.0068376064 0.05447936 -0.12422106
-0.09133445 -0.035759613 0.03786184 0.10229255 0.11360566 0.043246195 -0.051117867 0.088844836
-0.08782536 0.006296098 0.123891845 0.0065183043 -0.02746889 0.07219848 -0.05882962 0.045017675
-0.123885676 0.0010336041 0.09244785 0.096063375 -7.520616e-05 -0.08309856 -0.028659537 0.108195156
0.0031872839 0.11620203 -0.11505745 -0.096471205 -0.043584183 0.10443677 0.059910953 -0.054215297
0.0591287 0.07960427 -0.000749737 -0.03212519 0.107186005 -0.037164524 0.07228258 -0.019313693
-0.22555473 0.0016594601 0.15050969 -0.07868532 0.11359664 0.26938483 -0.015637789 0.03025011
0.23033427 0.08989781 0.17310257 -0.113236204 -0.14024457 0.1784663 -0.142595 0.21623258
-0.05853305 -0.20398752 0.11835764 0.016035475 -0.18254593 -0.20858707 0.13264494 0.1828024
-0.110947914 -0.08430558 0.0066132564 0.05822306 0.19645648 0.10084087 -0.11653641 0.14098541
-0.25391242 0.09134323 0.1896609 0.22565582 -0.1471058 0.2836564 -0.04039997 -0.2686643
-0.19477579 -0.33570138 -0.34087768 0.04353856 -0.11134742 0.24482925 -0.0061475807 0.054885853
0.002173352 0.030743085 0.13313209 -0.14750564 0.17226264 -0.08065972 0.024423525 -0.03171095
0.21487986 -0.18841963 -0.011781117 -0.11545167 -0.002734238 -0.21933328 -0.06917248 -0.10172154
0.32391396 -0.06977203 0.012776513 -0.037074987 0.03142704 0.61194485 -0.025070675 -0.009456777
0.20983835 0.14419024 0.16920844 0.15813252 0.12524235 0.2344723 0.20772965 0.48453844
0.037144914 0.21027543 0.1368565 -0.13796993 0.33193842 0.5615719 0.13545544 0.049562804
0.3158106 -0.0916964 -0.013513196 0.15595025 0.34835172 0.17945525 0.11255995 0.32166535
0.42103833 0.26227644 0.14278838 0.26106212 0.3979681 0.48981267 0.04162785 0.41375837
0.21048032 0.44797838 0.4122315 0.10407829 0.056422044 -0.039668832 -0.06619055 -0.011180372
0.06596773 0.048316672 0.0053479634 -0.019443544 0.15742709 0.09836052 0.122345544 0.0741838
0.13715576 0.46253458 -0.09939528 0.04230961 0.16960964 0.42964086 0.060411625 0.18284598
00000000: af28 4b3e dc6a 9dbc 5c04 d03d 8903 8bbd
00000010: 7ad0 bdbc d100 023f 6c3b 433e 873e bbbd
00000020: 7340 b43d efc5 62bd 74ab 053e f6be 1e3c
00000030: 89c2 143e 2f3a 043e e9ee 8b3e 00c4 073f
00000040: 19c4 053e aa8e 723e b2ce 043e 9d69 0dbe
00000050: 9e48 c93e ff9e 233f 0659 09bc 0581 503d
00000060: 657a 0b3e b372 f7bd 5e6b 07be f813 fc3d
00000070: 5dc8 c63e c4ff 863e 3deb 613d 67b8 b73e
00000080: 1a08 133f afd0 8b3e d036 003c 681b 0f3e
00000090: e6d1 a13e 7c55 243f c912 aabd b8e8 dc3e
000000a0: aa81 503e cf43 023f 12e6 393e e002 653d
000000b0: 8591 d23d e126 aa3d 8d31 b2bd 71a0 513d
000000c0: 0698 b33d b9c6 1c3d 0c71 343d 0c1b c33d
000000d0: fdd9 bd3b 8ae1 b2bc d356 f43d 3a90 003e
000000e0: 7f15 683d b08b 143f d973 3c3b 7959 e93c
000000f0: 28a9 933b 7158 c93e 8ed9 203d 6fe6 833e
00000100: 506b 9e3c f696 a63d 40ac e9bc fcba 31bd
00000110: 806e ec3a 5e5e 903d 1696 b23d a05e dbbc
00000120: 800a ec3b 800a 17bd 408a 17bb 0046 01bd
00000130: 20a1 fd3b 08b3 e5bd 74a3 63bd 28d4 c0bc
00000140: f0f3 e23c a04a ccbd 24c3 303d d650 ebbd
00000150: 7c5e 28bd 000e e03b c025 5f3d 9c67 febd
00000160: 8e0d bbbd ac78 12bd 0415 1b3d c27e d13d
00000170: 16aa e83d ec22 313d f860 51bd 48f4 b53d
00000180: c8dd b3bd 804f ce3b 02bb fd3d 8097 d53b
00000190: 7006 e1bc ccdc 933d 54f7 70bd 7464 383d
000001a0: c6b7 fdbd 007a 873a 4c55 bd3d e0bc c43d
000001b0: 00b8 9db8 942f aabd 68c7 eabc 6c95 dd3d
000001c0: c0e1 503b 54fb ed3d 3ea3 ebbd b292 c5bd
000001d0: 5485 32bd f2e2 d53d 3065 753d dc10 5ebd
000001e0: f030 723d 9007 a33d 008a 44ba b495 03bd
000001f0: 5684 db3d d439 18bd e408 943d c037 9ebc
00000200: d2f7 66be 3e82 d93a 361f 1a3e c525 a1bd
00000210: 5ba5 e83d cfec 893e d21a 80bc 14cf f73c
00000220: bfdc 6b3e 581c b83d cd41 313e 62e8 e7bd
00000230: 469c 0fbe dfbf 363e 6c04 12be 136c 5d3e
00000240: 5ac0 6fbd 1be2 50be 7e65 f23d d45c 833c
00000250: 52ed 3abe d997 55be 13d4 073e 8d30 3b3e
00000260: a938 e3bd 67a8 acbd 04b4 d83b 4e7b 6e3d
00000270: e32b 493e a885 ce3d a4aa eebd 7b5e 103e
00000280: cf00 82be 2912 bb3d 7836 423e 5212 673e
00000290: e7a2 16be 693b 913e 707a 25bd 5e8e 89be
000002a0: 4e73 47be 0de1 abbe 8587 aebe 7d55 323d
000002b0: 1e0a e4bd 85b4 7a3e a571 c9bb fdcf 603d
000002c0: cc6e 0e3b ecd8 fb3c c753 083e b80b 17be
000002d0: 9e65 303e ec30 a5bd d813 c83c 57e3 01bd
000002e0: 7709 5c3e 13f1 40be 9605 41bc ed71 ecbd
000002f0: e730 33bb e798 60be 4daa 8dbd 6253 d0bd
00000300: 0dd8 a53e a3e4 8ebd 9454 513c f1db 17bd
00000310: a4b9 003d 6ba8 1c3f 0461 cdbc 99f0 1abc
00000320: dddf 563e 9ba6 133e fa44 2d3e 7eed 213e
00000330: 883f 003e 8219 703e 15b7 543e 6c15 f83e
00000340: 4425 183d 7152 573e 1c24 0c3e fd47 0dbe
00000350: d5f3 a93e 2dc3 0f3f d5b4 0a3e 5e02 4b3d
00000360: edb1 a13e 52cb bbbd 7466 5dbc 6cb1 1f3e
00000370: 285b b23e 1ec3 373e d585 e63d 52b1 a43e
00000380: 5692 d73e 1949 863e 1e37 123e efa9 853e
00000390: 7ac2 cb3e bac8 fa3e f781 2a3d 23d8 d33e
000003a0: 2788 573e 6c5d e53e 0210 d33e 0027 d53d
000003b0: cd1a 673d c97b 22bd e98e 87bd e12d 37bc
000003c0: 171a 873d b4e7 453d f83d af3b 1148 9fbc
000003d0: 9134 213e 3e71 c93d 4d90 fa3d aded 973d
000003e0: 8f72 0c3e 55d1 ec3e c18f cbbd d74c 2d3d
000003f0: 26ae 2d3e e3f9 db3e 2e72 773d fa3b 3b3e
