time_cnn_model.pth (torch, 649649 bytes, 22 tensors)

conv1.weight f4 [64, 6, 3]
00000000: cf0d 6bbe b73d 26be 9334 9bbd 0769 14be
00000010: 41c1 b5be 6da8 893d a617 1d3d 8fe8 2d3c
00000020: 657c d23d c4d5 adbd 5031 2abe 7432 c23e
00000030: a075 953d 4f83 343d 70f7 d8bd 3ed2 8ebe
00000040: c997 c4bd 0274 033e e6b9 fabd 193d fb3d
00000050: 1ddc f9bd 5a97 823e 427b 80bd 472c c23c
00000060: d1af 813e 5cbe 853d 5cfa 963d dab6 53be
00000070: 54c6 72bd 975d 363e 1c40 bebd 4875 8cbd
00000080: 9a08 59be 963e 79be 4062 1dbe fb48 313c
00000090: ee2f 8a3e 6b14 86be 2e7e 673e 8fb1 1ebc
000000a0: 7e72 2c3e 6267 a23c 03ca cc3c 7919 47be
000000b0: dfbb 4fbd 2154 12bc 91c6 b6be d1cb 823e
000000c0: b458 0a3d c3fd 03be df03 903d c8c1 773e
000000d0: 535a d03d 85de b83d 02be 873e 9872 b4bd
000000e0: 0516 f33d 0192 643e 6c36 a1bd 8f67 51be
000000f0: 0864 0ebd 3446 72bd 720b eebd e4b4 9bbe
00000100: 1cd9 263e 20cb a6be 7c17 83bd 53aa 323c
00000110: 647b 25be 6c50 fe3c 51df 3cbe db94 62be
00000120: c6f5 e8bd d3c5 dc3d 1f72 353e 9b0b 4fbe
00000130: 6b49 203b 9129 943e 9e58 823d 65a5 43be
00000140: 9641 89be cb8e 943d 01bb 86bd b7a8 983d
00000150: 7e95 013e 37ef f53d 949f bc3c 01f1 f23e
00000160: 2e21 043f ae9f 68bb fe7b c13e 6dbe d23e
00000170: 94ff 8abe d26f 903e d94c fdbd 6417 2bbb
00000180: 574f 0c3e ae4c a9bd 5604 cabc 0dff cabd
00000190: 32a6 f73d 6c54 b6be 79a6 c0bd 2ecd 09be
000001a0: 25a1 14be 527f 73be 3e06 99bd 69b0 8b3e
000001b0: 431e d03e 3283 3b3e 8019 4cbe 41af e8bd
000001c0: ac63 2c3e 8812 6abb a2de 64bd 9d78 e7bd
000001d0: 2b65 adbd 7c47 18bc 7e6c 413e 1247 f6bd
000001e0: 1aeb 743d 5bd7 4f3d 74c7 c23d 6c36 a33e
000001f0: 06d1 33be db11 a33d 9063 14be 2734 5abe
00000200: 7000 b2bd a1b3 6e3d e114 f8be d139 103e
00000210: fa3b 80bd 72f9 d0bd b426 393d 4bb9 3f3e
00000220: 6f49 37be b273 a13e 5223 c23c a827 fd3c
00000230: 4885 6d3d e1e9 1abf ec56 e73c 5091 75be
00000240: 4396 b23b 1de7 aa3d fb12 e4bd c220 d5bd
00000250: 6185 aabe e3ff 63be 2329 cbbd ea2d 1abe
00000260: 78de 633d 84ac 4f3e 8c44 e7bd 023a 623d
00000270: 7b70 363e 18da 02be bddd cb3d 657f 45bf
00000280: d125 dbbd 48a3 28be 44c1 b33d 0d02 3f3d
00000290: d637 b63c e4b1 8a3d 0d9d 11be f732 65be
000002a0: b06f 893d 03b2 6f3d 8c66 693d 9a0b 9ebe
000002b0: a753 b8be 360b b3bd bfcd 76be 20a2 84be
000002c0: ec34 933d 5cef 893d 9742 abbd 37b8 413d
000002d0: 1437 e13e 4012 a53e 6849 49be 1e9a 4cbd
000002e0: 9e73 9bbd 4b27 de3d 6c1a 71be ae3b 613d
000002f0: 26de 913d 3318 f2bd 9de3 35be 07e1 ff3d
00000300: 6305 103e 272f 203e 50af b6bd 266b d43c
00000310: 3a47 843e 125a 313e 3fc9 98be 8c2b 30bd
00000320: abb4 d3bc c87e c4be b61b f83d 5292 b4be
00000330: cb3f b83d c295 da3c 0098 253c 5c42 ae3e
00000340: 1e8c f9bc 659e 013e 7c2a 483d 9a92 78bd
00000350: 6537 10be 4b6d ec3e c29f 86be 4641 f4bd
00000360: eadd 32bd 0120 ed3d 02fb 90bd 2e97 813e
00000370: 3cc6 7f3e 5d2b b13d 497f b1bd ef9d 16bc
00000380: 8d78 4fbe 973c 9cbd 79f3 153e 4c5c cfbe
00000390: 582c 233e 95f4 90bd db43 f8bd 319d acbe
000003a0: 6a5b e93d 9045 95bc e0b7 1a3e 5a71 c03e
000003b0: ad3c 81be 570d c63d 4895 ef3d f1fa b93a
000003c0: b94d 713d f3a1 9abd 7d80 87bd c0f0 5abd
000003d0: 44cf 473d 0a38 8d3e 3d51 9c3d 32ce dd3d
000003e0: 051f b2bd d653 43be f0ad 05be 0324 acbe
000003f0: 569d 86be ba6c cd3e a391 74be ca07 3d3e
-0.22954486 -0.1623448 -0.07578387 -0.1449319 -0.35499004 0.06721578 0.03835263 0.010614528
0.102776326 -0.08488038 -0.16620374 0.37929118 0.07297826 0.044070538 -0.1059407 -0.27894777
-0.09599263 0.12837222 -0.122424886 0.12267513 -0.122001864 0.25506097 -0.062735096 0.023702754
0.2532945 0.06530449 0.07371971 -0.20675221 -0.05927117 0.17809139 -0.09289572 -0.06858307
-0.21194687 -0.24340281 -0.1536951 0.010820623 0.26989692 -0.26187453 0.22606727 -0.009685888
0.1684055 0.019824687 0.02499867 -0.19443311 -0.050716277 -0.008931191 -0.3569837 0.25546125
0.033776 -0.12889771 0.07031988 0.24195015 0.10173478 0.09026817 0.26512152 -0.088109195
0.11869434 0.22321321 -0.07871708 -0.2044966 -0.034763366 -0.059148982 -0.11623277 -0.30411446
0.16293758 -0.32576847 -0.06400964 0.010904866 -0.16160351 0.031044208 -0.18444563 -0.22127096
-0.113750026 0.107799195 0.17719315 -0.20219271 0.0024457823 0.28937963 0.06364559 -0.19106062
-0.2680785 0.07253798 -0.06578637 0.07454055 0.12654683 0.12008517 0.023025312 0.47449496
0.5161313 -0.0035495567 0.3778991 0.41160908 -0.27148116 0.28210312 -0.12368173 -0.0026106471
0.13702141 -0.082665786 -0.02466027 -0.09911928 0.12092246 -0.35611284 -0.09406752 -0.13457176
-0.14514597 -0.23779038 -0.07471894 0.27283028 0.40648088 0.18311766 -0.19931602 -0.11361552
0.16834897 -0.0035716612 -0.05587638 -0.11302302 -0.08466562 -0.009294387 0.18889043 -0.12025274
0.059794523 0.05074249 0.09510699 0.31877458 -0.17560205 0.0796239 -0.14491105 -0.21308957
-0.0869149 0.058276776 -0.4845343 0.14084555 -0.062614396 -0.10203828 0.045202926 0.18723027
-0.17899106 0.3153358 0.023698483 0.030902699 0.057988435 -0.6051312 0.02823969 -0.23981214
0.0054500415 0.083448626 -0.11136433 -0.10406639 -0.33304885 -0.22265582 -0.099199556 -0.15056577
0.055632085 0.20280653 -0.11292371 0.0552311 0.17816345 -0.12778509 0.099544026 -0.77147514
-0.10700572 -0.16468537 0.08777097 0.046632815 0.022243422 0.06772211 -0.14220066 -0.22382723
0.06710756 0.058519375 0.056982562 -0.30868226 -0.36001322 -0.08742373 -0.24101923 -0.25904942
0.071878284 0.06735107 -0.083623104 0.04729482 0.43987334 0.32240486 -0.19656909 -0.049951665
-0.075904116 0.10847338 -0.23545235 0.054988556 0.071224496 -0.11821022 -0.17762609 0.124940924
0.14064555 0.15642987 -0.08920157 0.025929999 0.25835592 0.17319515 -0.2984104 -0.04301028
-0.025842985 -0.38377976 0.121146604 -0.35267884 0.089965425 0.026682738 0.01010704 0.34035003
-0.03046232 0.12658079 0.04886864 -0.060686685 -0.14083631 0.46177134 -0.2629376 -0.119265124
-0.043668665 0.1157837 -0.07079126 0.25310653 0.24977964 0.08650849 -0.08666856 -0.009192928
-0.2026083 -0.07628744 0.14643659 -0.40500104 0.15934885 -0.070779 -0.121223174 -0.33713678
0.11394389 -0.018221647 0.15109205 0.3758648 -0.25241604 0.09670513 0.11698395 0.0014189166
0.058912013 -0.075504206 -0.06616304 -0.053452253 0.04878165 0.27581817 0.076326825 0.10830344
-0.08697323 -0.1907495 -0.13054633 -0.33621225 -0.26291913 0.40122014 -0.23883681 0.18460003

conv1.bias f4 [64]
00000000: 1c46 79be f1af 003d 85b1 4bbe e9a0 143d
00000010: eab1 973d c104 64be e149 e1bd 6ca0 8f3d
00000020: 2335 21bd 7a76 de3d 6b82 5fbe 8472 113e
00000030: c318 a33d e918 4b3d aa5a 313e a666 27be
00000040: a8c4 96bd 1014 553e 3a60 f3bd 831e 1c3d
00000050: a8d4 d03a 4ec5 52bd 1b52 ebbd 439c 433e
00000060: b9c9 443e a7fe 17bd b6b4 96bd 5548 d6bc
00000070: 3be5 25be 8db7 3cbd 69f3 49bc a924 92bd
00000080: 7307 e63d ed70 36be 1d09 293e c9a0 ae3a
00000090: 2e62 d3bd d96e c1bd 4874 08be 312c 2c3d
000000a0: 1290 513e e53a 31bd 43e0 1fbe 52b1 4ebe
000000b0: 5710 45bd 60c8 433e c698 303e ba9a 83bd
000000c0: a1b1 5f3e d8d1 ea3d 2f92 42be 3187 563e
000000d0: bd6f fa3c c8ca acbc 2edd 5a3e 9f38 8ebd
000000e0: a6cc 21bd 3f35 1b3e 23cd b1bd 9eb9 1fba
000000f0: 7609 ab3c 1ad2 333e 96f3 59be b33b 01be
-0.24343151 0.03141779 -0.19891937 0.03628627 0.07406981 -0.22267438 -0.110004194 0.0701302
-0.039357316 0.10862441 -0.21827094 0.1420384 0.07963707 0.049584303 0.17319742 -0.16347751
-0.07361728 0.20808434 -0.11883588 0.038115036 0.0015932517 -0.051457696 -0.1149027 0.19102578
0.19217576 -0.03710809 -0.073586866 -0.026157537 -0.16200726 -0.046073485 -0.0123261 -0.071358986
0.112318896 -0.17816515 0.16507383 0.0013323064 -0.10321461 -0.09444971 -0.13325608 0.04203433
0.20465115 -0.043269057 -0.15612893 -0.2018483 -0.048111286 0.19119406 0.17245778 -0.06425996
0.21845104 0.11465806 -0.19001077 0.20950009 0.03057086 -0.021092787 0.21373436 -0.06944393
-0.03950181 0.1515703 -0.08681705 -0.0006093028 0.020878535 0.17560616 -0.21284327 -0.1262043

conv2.weight f4 [128, 64, 3]
00000000: 8646 233d bf82 933d 6b33 3ebd 7d67 77bd
00000010: bb05 d2bc bad0 b5bc d195 1ebe c546 eabb
00000020: ac68 333d 1d0e e63d 2042 b4bd cd83 fcbd
00000030: c46e 96bd b377 be3c 1aad 2ebd 41cf 473c
00000040: 3dbc d83d 1955 9ebd a3a2 42be ed63 123c
00000050: c956 003e c482 273e 5b19 2f3e 3635 9bbd
00000060: fdce 0e3d 4b7a 95bc 59d9 fbbc 71e4 813c
00000070: 6191 28bc 1efb 5abd aeb6 1cbd ec05 8e3d
00000080: efa4 1fbd c103 6c3e 01a8 c03d 284c c23d
00000090: 6bdc 08bd d0bd 50bd 1f0e 5ebd de08 b5bc
000000a0: be11 433d 2cd7 a73c 0367 f2bb 6e82 45bd
000000b0: ba31 72ba 23f1 073d 6ae1 113d 0e34 4cbd
000000c0: a283 f4bd 9fb3 36be f0e8 15be 9f0f c13c
000000d0: 056f c6bd c291 17bc 06dd 14bd 721a 05be
000000e0: d0ac 9cbc eb99 3c3d 1eec 983d a49f 7abd
000000f0: e09b 82be e5d0 b1bd c206 553d faac 57bd
00000100: 5db8 ff3b d9e9 9ebc 900c fabc dc80 013e
00000110: cb2c 0e3d ea8e 203e 8285 663d 27e3 25bd
00000120: 04f1 08bd 3506 97bd ea46 333d e159 703d
00000130: 2073 07be 3ef4 72bd 4ea8 183d 60f6 6ebc
00000140: 628a 393d e9a1 d83a f094 97bd 2229 63bd
00000150: ecb0 92ba 1cfc f23c da32 cf3c c509 c53d
00000160: 3bed 213d e5fc 9e3d e836 033c 273d 083d
00000170: 0cf3 e0bc 2d7b 6cbd dac8 58bd cba0 c0bd
00000180: c298 a2bc 0a9b ba3d f264 e13d a0be 963e
00000190: 918e 003e 6fb8 27bd aa28 173d 0934 41bd
000001a0: 0d11 ac3d 6ee5 1e3d 7cf8 a93d de92 b33c
000001b0: 6d23 4e3e e44e 50bd b4c2 2ebd f5f0 8dbb
000001c0: 8075 8fbd dc82 54be 0670 10be bac0 e63a
000001d0: c0cd ae3c 769b 49bd 11de 38bd a07e e0bc
000001e0: 0d79 14be 702a e6bd ef3a 9cbd 7e1a c23c
000001f0: 6e61 61bc cad6 973c 31a1 d6bd 827f adbe
00000200: 4ed0 2bbe 9893 8abd a303 39bd 1b03 6dbd
00000210: fea7 7e3c ecfc 933c 6202 04bd eb18 12bd
00000220: ca97 9bbd aa6c babc 0808 74bd 1cf4 b7bd
00000230: 9e71 80bc 320e 6d3d e845 cd3c 9149 85bd
00000240: 7558 aabb 57e5 28bd 1620 ef3d d963 20bd
00000250: 2a37 5fbd 4b51 6abd cdc2 bbbc 83f2 28bd
00000260: 74db da3c 7890 05bc 3ce2 78bd 72e7 50bd
00000270: 85ae 50bd 1565 3fbd 601b 8d3c ba31 453c
00000280: 3b82 813d 3d58 9b3d b81f 83bc c016 20bc
00000290: 5953 4bbd 46cf f93c 6ad0 68bc 0567 07bd
000002a0: 3238 69bd a580 4ebd 7966 1bbd 2f36 91bc
000002b0: 245a 5fbd c181 a13c 5db5 b33d b0e3 493c
000002c0: 36ff 543b 1b5a 213d 95ce 05bd ed56 00be
000002d0: cbc2 21bd a08e e33c b1af 18bb d716 3dbd
000002e0: bc1a 32bd a584 07be 7657 973c 5e21 0b3d
000002f0: 3a75 133c 6182 97bc 4c61 88be ed7d c43a
00000300: 191d 79bd 781c 81bb 4427 66bd 4ee0 4fbd
00000310: b1f5 bebb 5c99 3ebd af9f 8b3c c7f0 653d
00000320: b3ef 83bc 6d16 103c 1ec4 20bd 29aa 9dbd
00000330: 0e50 503d 6684 083d 8464 eabc 3b95 ffbc
00000340: 5386 573d 445e d1bb a31b 8cbc 280a ce3c
00000350: 098e ef3c 5f0c b7bd 4425 f6bd 65d5 0ebe
00000360: de28 693b e4c4 ad3c dd2c b0ba 1b4f 283c
00000370: a639 77bd e243 f33b c4b2 8fbd bf34 35bd
00000380: 9c8a 60bd 91ef 39be ecba 58be 14d6 19be
00000390: 8dfa a63c 4d9a 2bbd 91a0 19ba 043c 37bc
000003a0: 6b09 06bd 9e76 13be 38bf 103d ef87 1a3d
000003b0: 78d9 86bd 221d cfbc 17d9 d3bc f13a 203d
000003c0: 07f4 ac3d 7eec 0f3c 9ac7 413d a8db 163e
000003d0: 2b7c 4d3d a982 923d 4c6b 3cbd d056 a6bc
000003e0: 0acf 263c 131b 2bbd 17db b9bd 5c97 ebbd
000003f0: 2fee 1b3c cf6f 82bd 8dae f93c 79be 3fbd
0.03986218 0.07202672 -0.046435755 -0.06040143 -0.025637498 -0.022194255 -0.15486838 -0.0071495497
0.043800995 0.11233161 -0.08801675 -0.123298265 -0.073453456 0.023250436 -0.04264555 0.012195409
0.105827786 -0.07731075 -0.19007353 0.008934957 0.12533106 0.16358477 0.17099516 -0.075785086
0.03486537 -0.01824679 -0.030743288 0.015856 -0.010288567 -0.05346214 -0.038260154 0.06934723
-0.038975652 0.23048307 0.09407044 0.09487182 -0.033413332 -0.05096227 -0.054212686 -0.022098955
0.047624342 0.020488344 -0.007397534 -0.04822009 -0.0009238977 0.03318895 0.035615362 -0.04985433
-0.119391695 -0.17841958 -0.1463964 0.023567019 -0.09689144 -0.00925106 -0.036343597 -0.1299837
-0.019125372 0.046045225 0.07466911 -0.0611874 -0.25509548 -0.086824216 0.052008398 -0.052655198
0.0078039602 -0.019398617 -0.030523568 0.12646812 0.034710687 0.15679517 0.056279667 -0.040499832
-0.033432975 -0.07374231 0.0437688 0.058679465 -0.1322751 -0.05931496 0.037269883 -0.014585108
0.045297988 0.0016527745 -0.074014544 -0.05545915 -0.0011191643 0.02966123 0.025292803 0.09621004
0.03953288 0.077630796 0.008008696 0.033261444 -0.027459644 -0.057734657 -0.052925922 -0.09405669
-0.019848231 0.091116026 0.11005582 0.2944231 0.12554385 -0.040947374 0.036904015 -0.047168765
0.0840169 0.03879302 0.08299348 0.021920618 0.20130701 -0.050856486 -0.042666152 -0.004331703
-0.07004833 -0.20753044 -0.14105234 0.0017605044 0.021338344 -0.049220525 -0.045133654 -0.02740413
-0.14499302 -0.11238563 -0.07628428 0.023694273 -0.013756139 0.018535037 -0.104799636 -0.33886343
-0.1677868 -0.067664325 -0.045169484 -0.05786429 0.015542982 0.018064938 -0.032228835 -0.035668295
-0.07597311 -0.022756893 -0.05957797 -0.08982107 -0.015679177 0.057874866 0.025057748 -0.06508172
-0.005198533 -0.04123434 0.11676042 -0.039157722 -0.054495968 -0.057206433 -0.022920037 -0.041246902
0.026715972 -0.00815212 -0.06076263 -0.051001973 -0.050947685 -0.04672726 0.017224967 0.0120357815
0.063236676 0.075851895 -0.016006336 -0.009771049 -0.049640033 0.030494343 -0.014209846 -0.03305723
-0.056938358 -0.050415654 -0.037939522 -0.017726032 -0.054529324 0.019715192 0.08774827 0.012322351
0.003250075 0.039392572 -0.032667715 -0.1253316 -0.03949241 0.02777797 -0.002329808 -0.04616436
-0.043482527 -0.13234194 0.018474322 0.03396737 0.009000117 -0.018494787 -0.26636732 0.0014991142
-0.060818765 -0.0039401613 -0.05618979 -0.050751023 -0.0058276285 -0.046532974 0.017043917 0.056137826
-0.016105508 0.008794409 -0.039249532 -0.07698471 0.050857596 0.03332939 -0.028612383 -0.031199088
0.052618336 -0.006389411 -0.017103022 0.025151327 0.029242532 -0.089379065 -0.120188266 -0.13948591
0.0035577337 0.021212049 -0.0013441105 0.010272766 -0.060357712 0.0074238637 -0.07016519 -0.044239756
-0.05481969 -0.18157794 -0.21165055 -0.1502307 0.020383144 -0.0418952 -0.0005860413 -0.011183742
-0.032723825 -0.14400718 0.03533861 0.037727293 -0.065844476 -0.025282446 -0.025860352 0.03911871
0.08444982 0.0087844115 0.047309496 0.1473223 0.050167244 0.07153828 -0.046000764 -0.020305067
0.010181198 -0.041773867 -0.09074991 -0.11503479 0.009517237 -0.06368982 0.03047874 -0.04681251

conv2.bias f4 [128]
00000000: b796 0cbd c871 613d a5ba de3a ec60 ed3c
00000010: 5635 05bd 82bb 96bc 5ef2 11bd 1252 ebbb
00000020: 76e7 16bc 4608 5dbd ced1 c7bc 592c 313d
00000030: 4c30 ab3c bb41 82bd 5b5c 8fbd 056b 393d
00000040: c36d 533d 4f11 743d 45fa c83c 7a04 853d
00000050: 718c a3bd 5218 1e39 7718 673c c873 663d
00000060: 6b12 afbc b560 66bd d816 883d 53f5 5dbd
00000070: aad3 e13c 79ac da3c d28d 4f3b 6fb6 e5bc
00000080: ef79 33bd 176b 653d 6903 a03c 2a9e 84bc
00000090: 75db a0bc c948 f13b 85b5 5bbc c70b 673d
000000a0: 4ce1 713b 3024 1e3d 9927 1bbd fda5 a73c
000000b0: e4eb 5c3d b616 c2bb 890f 6b39 6911 763c
000000c0: feac 1c3c 0e91 80bd 1e2f 753d 034b cfbc
000000d0: 7d8b 93bc ccff 5d3c ccfd 793d 3c43 4ebc
000000e0: 3070 96bd 8691 783c b6b3 98bc d248 86bd
000000f0: d346 c83a 1127 933d 2429 e33a 8b98 e7bc
00000100: 245b 42bd 7d2d 9abc 37a3 5f3d 5102 433b
00000110: ff06 17bd b6e3 973d 4839 913d 5995 1dbd
00000120: d68f 80bd 7d7e dc3c 2ecb 4d3c 7c50 1bbd
00000130: f7fc 75bd 0bc7 8bbd 4f20 b5bb 0701 a6bc
00000140: f099 ec3b 5062 4d3b e164 133d e8e7 953c
00000150: 14b4 963d 93f9 253c 6c31 4fbc 32fe f7bb
00000160: 9939 58bd 8ea3 e8bb 4478 a83c f703 4b3d
00000170: 5883 83bd ff16 9c3c 4f6e e93c 2ed0 403b
00000180: 653f 143d 84aa 793d e521 82bd 01a0 83bb
00000190: 79de 613c a173 043c 3c9a 3b3d 160d b2bc
000001a0: bf4c 5ebc 2812 6d3d ee57 283c 3237 853d
000001b0: 62b2 963d a24a 5bbd 521c 80bd 25a9 8dbd
000001c0: e7a5 a0bd 4a85 84bd 0176 ddbc 0597 9e3c
000001d0: 6f41 97bb 58c1 243d d13d 463d 5024 40bd
000001e0: 4e58 5f3c 169f 10bd be04 573d d2e1 4c3c
000001f0: abc7 0f3d 00c0 82bd a42b 47bd 891b 423c
-0.03432342 0.05504015 0.001699288 0.02897688 -0.03252157 -0.018399958 -0.03563153 -0.0071814144
-0.009210458 -0.05396297 -0.024392035 0.043255184 0.020897053 -0.06360193 -0.07000037 0.045268077
0.05161835 0.05958682 0.0245334 0.064949945 -0.079857714 0.00015077114 0.014104954 0.05626276
-0.021371087 -0.05624457 0.06644982 -0.054189038 0.02756675 0.02669357 0.0031670225 -0.028041093
-0.043817457 0.056010332 0.019532876 -0.0161887 -0.019635895 0.007363413 -0.013409977 0.056407716
0.003690797 0.03860873 -0.03787956 0.020464892 0.0539359 -0.0059231175 0.00022417134 0.015018799
0.009562729 -0.06277667 0.059859388 -0.025304323 -0.01801085 0.013549756 0.061033055 -0.012589272
-0.07345617 0.015171414 -0.01864038 -0.06556858 0.0015279896 0.07185186 0.0017330986 -0.02827098
-0.0474502 -0.018820519 0.054599013 0.002975602 -0.036871906 0.07416479 0.07091004 -0.038472507
-0.062774345 0.026915783 0.012560649 -0.037918553 -0.0600557 -0.06825074 -0.005527533 -0.020264162
0.007220499 0.0031339116 0.035984877 0.018299058 0.07358566 0.010130304 -0.01264606 -0.0075681442
-0.052789304 -0.0070995754 0.02056516 0.049564328 -0.06421536 0.019053934 0.028494982 0.002942096
0.03619327 0.060953632 -0.06354121 -0.0040168767 0.013785952 0.008084209 0.045801386 -0.021734755
-0.013568102 0.057878643 0.01027487 0.06504668 0.073582426 -0.053537972 -0.06255402 -0.069170274
-0.07844143 -0.06470735 -0.027033808 0.019359121 -0.0046159546 0.04022345 0.048398796 -0.04690963
0.013631893 -0.035307966 0.052494757 0.012505012 0.035102528 -0.06384277 -0.048625603 0.011847385

conv3.weight f4 [256, 128, 3]
00000000: ce17 643c d685 1e3c 0457 70bc 75ae a9bd
00000010: b83e 0ebd 992b c8bc 1f73 5b3b 5842 c0bd
00000020: 496f b7bd a679 5ebd dd32 0a3d ab3e 44bc
00000030: 8ccc a8bd 3873 a1bd f7ea 80bd ab96 743c
00000040: 669d e139 60a2 263d 0332 72bd 4f0d 88bd
00000050: afba e5bd 4aa4 11bd 38e1 16bd 6b8f ef3c
00000060: 6f49 45bd b29b adbc eb3f 99bd b1d4 a8bd
00000070: 24d7 813d 6a17 06bc e74f 1fbd 3608 933c
00000080: 9bcb 4e3d aacd 0a3d 2ac1 1f3b 8a32 473c
00000090: b5da 4dbd c118 a63a e95f 1a3d 67f0 a73c
000000a0: fce6 333d 196c a93c a33b 8ebc 77cd f0bc
000000b0: 33c1 3fbd d05f 93bc 40b4 67bd e4de 3cbd
000000c0: 8209 843d 0a9d 5cbd 1956 17bd bd52 573d
000000d0: 8b25 643d 15a8 aa3b 53da 1bbc 723a 8abd
000000e0: b6f1 153d 1b9b 17bc 265e 9e3d 88c0 ce3d
000000f0: 6dae 4e3b 8fac 7fbb 4564 8cbd 868b ccbd
00000100: a57f 8cbd 6797 7fbd 0a3d 9f3d 5ba8 073e
00000110: 8f3f e83d 32ff d0bd 538c 98bd 998b babb
00000120: 5651 aebb 70ea a1bc 946d 72bc bf96 d2bc
00000130: 8640 cd3d 1d14 cb3d 68d7 c0bc 5916 5a3d
00000140: f3d0 853d a8f3 dabb 70dc 35bc 92b0 ef3d
00000150: 8919 3cbd 7968 96bc e611 3abb 5944 cbbc
00000160: 8995 40bc 8ec5 09bd fec5 c3bc fcae 01bd
00000170: ef3d b13d 0bb0 9dba 3198 7dbc ee7c 0fbd
00000180: b9cd fe3c 6bc8 b63c 7742 773c 63ed 973c
00000190: d551 adbc d35c 8b3c 82e7 1abd 0263 d1bc
000001a0: 27a7 cb3d 97d3 25ba 009f f5bc 31f6 833d
000001b0: 9452 4a3d eef8 37bd be21 083c 2fbb 85bc
000001c0: ebda cdbc 8003 83bd 3992 c1bd 04fb d6bd
000001d0: 1a00 fb3b 1012 a5bc 507f 0b3d e63e 3db9
000001e0: 9ee4 df3c 36c9 1fbc 9bdc fdbc 530c 04bc
000001f0: e97b bb3c 3880 833d cd47 8bbd b509 853d
00000200: 8377 40bd 8a54 833d 9ebe ca3d 8627 053e
00000210: 46f8 0abe d60e fcbd de30 a5bd db0b f23c
00000220: d0c2 d63c ac36 a43d a6df dbbd a86f 9cbd
00000230: 83cb e1bc 93e8 7e3c 58d7 08bd 4bc7 beba
00000240: aa74 94bd cb0b 8dbd 9e8d 3dbd 8717 90bd
00000250: d82a 7dbd ddf6 0fbd e5ad 203d b7ed 093d
00000260: 3991 c0bc 3dc9 82bd f388 bcbd 176d 8cbd
00000270: 8b67 0ebc bbee d23d 46d3 f339 c5e5 40bd
00000280: 9180 26bd 703a fb3c 3e15 8f3b 2f08 e9ba
00000290: 1a39 84bc d687 46bc 1177 1f3c 728f ab3c
000002a0: f15a febc d986 383d 5b25 5dbc b745 98bc
000002b0: 6d08 0a3d bc9f 2d3d da0b ddbd 5e9f 453c
000002c0: 7664 c1bc 6823 243d 4a58 8abc 541c 71bc
000002d0: 9b6b ac3a b790 bb3b c714 a33d 6728 313d
000002e0: 5e83 093d 182d eb3d 5c03 fa3b 617e 883c
000002f0: dde9 bd3c 7dc5 a8bc 4701 843b 451c 06bc
00000300: c33b cf3c 193a 36bc d6c2 913d 3250 29bd
00000310: 2198 54bd ba32 5cbd a37f 2b3d 84b5 8d3d
00000320: e683 843c e62e e8bc 1193 5dbd 4c40 903d
00000330: bf62 1ebc 4cd8 f43b 31b0 923d 8ac2 223d
00000340: 0bbc e03b 1d57 5c3d 8955 b0bd ce91 00bd
00000350: 5437 31bd f12b 903d 0159 193e 7c2a b13d
00000360: b7aa bdb9 74d6 c73c 960e c33d c42b 103a
00000370: 2b57 023d 6fa8 a73c e036 97bd f3a4 71bb
00000380: b03f ae3c 86b1 72bd 5cb5 0d3d fb0f 67bd
00000390: 0598 c0bd 615d 18bd 0b42 053d 4705 8f3c
000003a0: d072 79bc 1f18 ce3c 6b95 623d e7dc 1f3e
000003b0: c388 573d 469b 2b3b e9b5 063d a5fb 6e3a
000003c0: 23c6 0ebd 1aef 2dbd 7ae5 56bc 55bc 4cbd
000003d0: ba1f 4abd 870e f73b 9d14 f43c f80d 6a3c
000003e0: da44 793d cbc0 983d 0d47 c63d 1a43 043d
000003f0: b8e3 28bd c9d7 79bd ca7d a8bd 47df b9bc
0.013921691 0.009675464 -0.014669184 -0.08285228 -0.034727782 -0.024434851 0.0033485366 -0.09387654
-0.08956773 -0.05431523 0.033739913 -0.011977832 -0.08242139 -0.07883304 -0.06294816 0.0149285
0.00043032615 0.040682197 -0.059129726 -0.066431634 -0.11217248 -0.03555707 -0.03683588 0.029243192
-0.048165735 -0.021192405 -0.074828945 -0.08243693 0.06339863 -0.008184293 -0.03889456 0.017948251
0.050487142 0.033887543 0.002437661 0.012158046 -0.050257403 0.0012672172 0.037689123 0.020500375
0.043921456 0.020681428 -0.017362421 -0.029394848 -0.04681511 -0.017990023 -0.056568384 -0.046111003
0.06447126 -0.0538607 -0.036947343 0.05256914 0.055699866 0.005208025 -0.009512502 -0.06749429
0.036607467 -0.009253289 0.07732801 0.10095316 0.0031537071 -0.0039012765 -0.068550624 -0.099875495
-0.06860284 -0.062400248 0.07775314 0.13247816 0.11340248 -0.10204925 -0.0744864 -0.005692911
-0.0053197546 -0.019765109 -0.014796633 -0.025706647 0.100220725 0.09915946 -0.023540214 0.05324397
0.065339945 -0.006681878 -0.01109992 0.117036 -0.04592279 -0.018360363 -0.0028392016 -0.024812864
-0.011754402 -0.03363567 -0.023898121 -0.03166102 0.08654391 -0.0012030614 -0.01547818 -0.03503125
0.031103956 0.022312364 0.01509153 0.018545812 -0.021157185 0.017012035 -0.03781844 -0.025559906
0.09943991 -0.000632578 -0.029983044 0.06443442 0.04939516 -0.044915132 0.008308826 -0.016324608
-0.025128802 -0.06397152 -0.09451718 -0.10497096 0.007659924 -0.020150214 0.03405696 -0.00018047876
0.027330693 -0.009752562 -0.030988982 -0.008059579 0.022886233 0.0642094 -0.06800804 0.06495992
-0.046988975 0.06412609 0.098996386 0.13003358 -0.13571271 -0.12307517 -0.08065961 0.029546669
0.02621594 0.0801824 -0.10736017 -0.07638484 -0.027562862 0.01555838 -0.033408493 -0.0014555244
-0.072488144 -0.06887015 -0.046277635 -0.070357375 -0.061808437 -0.035147537 0.03922834 0.03367397
-0.023506748 -0.063860394 -0.092058085 -0.06856745 -0.008691679 0.102994405 0.00046505983 -0.047094125
-0.040649954 0.030667514 0.004366546 -0.0017778928 -0.01614051 -0.012117347 0.0097329775 0.020942423
-0.031049224 0.045050476 -0.013497676 -0.01858793 0.03369944 0.042388663 -0.10793276 0.012061922
-0.023607474 0.04007283 -0.016887803 -0.014716227 0.0013154628 0.0057240385 0.07962947 0.04325142
0.033572547 0.1148321 0.007629795 0.016661825 0.023182804 -0.020601982 0.0040284726 -0.008185451
0.025297051 -0.01112225 0.0711724 -0.041336246 -0.051902894 -0.053759314 0.04186977 0.06919387
0.016176175 -0.028342675 -0.05409533 0.07043514 -0.009667098 0.0074720737 0.07162512 0.03973631
0.006858354 0.053794015 -0.086100645 -0.03138905 -0.043265656 0.07039631 0.14975359 0.086506814
-0.00036176082 0.024394251 0.095242664 0.00054996856 0.03182141 0.020466058 -0.073835135 -0.0036872
0.021270603 -0.05925133 0.034596786 -0.056411725 -0.094039954 -0.037198428 0.032533687 0.017458571
-0.015225127 0.025157986 0.055318277 0.15611611 0.05262066 0.002618508 0.032888327 0.00091164774
-0.034856927 -0.042464353 -0.013116235 -0.049984295 -0.049346663 0.0075395736 0.029794985 0.014285557
0.060856678 0.07458647 0.096815206 0.032290556 -0.041232795 -0.060996804 -0.08227117 -0.022689475

conv3.bias f4 [256]
00000000: fd80 383d b2da c53c 4957 313c fa88 0d3d
00000010: c2d6 14bd 5ae6 183d 90b8 dabc 18b7 223b
00000020: e4cc 2a3d c20d 0fbd 99fa 92bb 7977 f23b
00000030: 5629 1cbd 8a67 4c3a 55d7 26bd 528f cbbc
00000040: 7e55 9b3b c2e2 90bb 4dab 8a3c 9868 203d
00000050: 88a5 5c3d a1a8 503d 3085 5f3b 54d7 f7bb
00000060: 21a4 353d b878 0bbd 3558 4e3d 8171 743c
00000070: 49c8 de3c d8e9 f63c a628 fe3b a079 3dbd
00000080: c79d 8cbc 33f2 c13c 7424 233d c3b7 d9bc
00000090: f5ab c4bc cd09 d2bc 52a0 b93c a98b 2bbd
000000a0: 2e15 b7bc 3b41 12bc 0115 06bd 7065 be3b
000000b0: 7781 89bc add2 6bbc 3443 693a 128c 973c
000000c0: 44a6 cdbc e226 c23c 707d f83c 5d77 493d
000000d0: 4eb1 923c 24b1 e9bc 9b0d f9bc 2b0c a6bc
000000e0: a01d 4b3d 9dc5 0dbc 9027 76bb b067 42bd
000000f0: 5f84 f53c e77e d03b 2723 63bb 77c1 853c
00000100: a150 b03c 8727 05bd 4e0e 1a3d 7b9d 8d3a
00000110: 7a89 403d 44c8 c93b 93b0 ff39 7aeb 23bc
00000120: a4a6 3e3d 2c29 3e3d 5167 b53c 738e fabc
00000130: 8927 e2bb fc29 e83c 6d45 48bd 7d9b 99bc
00000140: 0bd1 07bd b8a4 4cbc d02b ffbc 2bf6 f7bc
00000150: 69d2 4d3d d54e 083d dded 4a3d af12 0cbd
00000160: 6280 52bd 928a 383d 3319 8abb c37d 413d
00000170: 7297 8cbc 6103 3cbb bc25 013d 1b19 4dbc
00000180: e828 0d3d bf42 47bb 74f1 e3bb 7fbb 323d
00000190: 1208 04bd ce44 c73c fd48 3b3d b968 8dbb
000001a0: c53c 5fbb 9a0b 373c 011a ad3c c05b ac3c
000001b0: 371b 40bd cfb2 18bc 459b 47bd 57d4 b2bb
000001c0: 65b1 e43c 170b 8a3b 3511 0d3d 2b1a 773b
000001d0: e3ab ba3c ec61 a0bc 70ce a23c 711c cfbc
000001e0: 8a6e c03b e320 22bb 9a07 c6bc dbd2 6abc
000001f0: a241 1d3b a2fc 87bb a541 463d 8c6d 273d
00000200: 8278 36bd adbe dcbc 9c7a 053d 6b67 67bc
00000210: b090 d5bb 7789 08bc b87c 31bd 25b8 d7bb
00000220: 8a7b 023c 16fb 2a3d ca12 3d3d 555d 82bc
00000230: bb01 53bb 84d6 f53c 3a91 383d c739 4a3d
00000240: d2b4 0fbd b669 26bd 8de2 00bd 35a7 fb3c
00000250: 6d13 403c b480 1ebd e644 c5bc 68be b23b
00000260: 4046 33bd d54e 3b3d 5a9e a13b c4d5 b73c
00000270: c792 fabc abbd 58bc 1ddd 963c 604f 093d
00000280: e252 16b7 fa92 e8bc 33c6 a9bc 4d0b 42bc
00000290: 8724 df3c 6ea4 97bc e256 1c3c ab82 073d
000002a0: 28cb ba3c 78fa bdba e7cc 04bd dda7 383d
000002b0: 6cb1 263d ee57 3f3d 46c4 573d 3155 53bd
000002c0: c152 013c 25fb 02bd 13f7 033d e3b4 72bc
000002d0: 1a68 2cbd 9544 043d 25bb 35bd f9b5 9f3c
000002e0: b798 0dbd 2985 1bbd 92c3 3cbd 431e 52bc
000002f0: 3b30 7abc c910 88bb 8039 95bc c295 14bd
00000300: efd0 283d 46bc fb3c 00ef aebc 86a9 723c
00000310: 7a3b 9cbc 8292 183d e0aa 46bd 7946 363c
00000320: e28a 4a3d b46e debc 6ce7 133d aa65 143d
00000330: f402 3e3d 682d 293c 6973 b5bc c609 b83c
00000340: a658 a93c 3d45 003d 683d 213c e00d 6abc
00000350: 2ff6 9cbc 424b e8bc 7ec5 b8bc 3c4c 843c
00000360: 54c8 b23b 2603 d63c b1a0 3c3d f89d 9c3c
00000370: e66e c7bb 660b 10bd b868 c4ba 6937 1d3d
00000380: 4cde 103d b7a8 0ebd c0e9 a13c 8148 e03c
00000390: 9318 d63c f976 c93c 40cf 3d3d 7289 03bd
000003a0: 3714 bcbc 416b 3c3d 92be 22bd 5f7e 1bbd
000003b0: 2379 183c 282f 76bc f036 963c edd6 3ebd
000003c0: 26cf 893c 2cd0 e5bb cab5 853c 39aa 38bd
000003d0: 2730 11bc 7585 343d 3e51 ad3c f557 cd3c
000003e0: 1f20 18bd 7ed3 b83c 6840 493d 30f5 3ebc
000003f0: 7004 853c e0a8 5ebc 5b1a 06bd f53b 973c
0.045044888 0.024152134 0.010824033 0.03455446 -0.03633762 0.037329055 -0.026699334 0.002482837
0.041699305 -0.03492523 -0.00448544 0.007399496 -0.03812536 0.0007797411 -0.0407327 -0.024848614
0.004740416 -0.004421563 0.016927386 0.03916225 0.0538688 0.050942067 0.0034106486 -0.007563511
0.04434598 -0.034050673 0.05037709 0.01491964 0.027195113 0.030140802 0.0077563105 -0.04625857
-0.017165078 0.02367506 0.039829686 -0.026576882 -0.024007777 -0.025639439 0.022659454 -0.041881237
-0.022348966 -0.008926685 -0.032734875 0.005810432 -0.016785366 -0.014393491 0.00088982587 0.018499408
-0.025103696 0.023700181 0.03033325 0.0491861 0.017906811 -0.02852685 -0.030401995 -0.020269474
0.0495888 -0.008653072 -0.0037560202 -0.047462165 0.029970346 0.006362784 -0.0034658404 0.016327603
0.021522822 -0.0325084 0.0376113 0.0010804379 0.047006108 0.0061579067 0.00048768948 -0.010004872
0.04654564 0.046425983 0.022143992 -0.030585503 -0.0069016856 0.028340332 -0.048894335 -0.0187509
-0.033158343 -0.012490444 -0.031148821 -0.03026875 0.05024949 0.033278305 0.04954325 -0.034197506
-0.051391967 0.045054026 -0.0042144298 0.047239076 -0.017162059 -0.0028688537 0.031530127 -0.012518193
0.03446284 -0.0030404774 -0.0069562737 0.04363584 -0.03223426 0.0243248 0.045723904 -0.0043154624
-0.003406332 0.0111722 0.021130564 0.021039844 -0.046900954 -0.009319975 -0.04873206 -0.005457442
0.02791662 0.004212748 0.034440238 0.0037704806 0.02278704 -0.019577943 0.019873828 -0.025282117
0.0058725523 -0.002473884 -0.024173547 -0.014332498 0.002399542 -0.004149989 0.048402447 0.040875956
-0.04454852 -0.02694639 0.032587633 -0.014123778 -0.0065174922 -0.008333555 -0.04333183 -0.006583231
0.007964024 0.04174336 0.046160497 -0.015913645 -0.0032197076 0.030009516 0.045060374 0.049371507
-0.035084553 -0.040628158 -0.031466056 0.030719379 0.0117233815 -0.03869696 -0.024080705 0.005454827
-0.043768167 0.045729477 0.004932207 0.022440799 -0.030587567 -0.013228814 0.018415982 0.033522964
-8.959994e-06 -0.028390396 -0.020724392 -0.011843515 0.027239097 -0.018511023 0.009542199 0.0330836
0.02280195 -0.0014494201 -0.032421973 0.045081962 0.040696546 0.046714716 0.052677415 -0.051594917
0.007893265 -0.03197779 0.03221805 -0.014813635 -0.042091466 0.032291967 -0.044367928 0.019495951
-0.03456947 -0.03796879 -0.046084948 -0.012824598 -0.015270288 -0.0041523916 -0.018215895 -0.036275633
0.04121488 0.030729424 -0.021354198 0.014810925 -0.01907133 0.037249096 -0.048502803 0.0111252
0.049448855 -0.027152397 0.036109373 0.036229767 0.046389535 0.010325767 -0.022149758 0.022465598
0.020672154 0.03131603 0.009841301 -0.014285535 -0.019160358 -0.028356198 -0.02255511 0.016149633
0.00545601 0.026124548 0.046051685 0.019118294 -0.006086218 -0.03516712 -0.0014984822 0.03838292
0.03536825 -0.034828868 0.019764781 0.027378323 0.026134765 0.024592863 0.046340227 -0.0321135
-0.022958858 0.046000723 -0.039732523 -0.037962314 0.009306225 -0.015025891 0.018336743 -0.046591688
0.016822409 -0.0070133414 0.016322035 -0.045084212 -0.008861578 0.044072587 0.021156903 0.025066355
-0.037140008 0.022561785 0.04913369 -0.011655137 0.016237468 -0.013590068 -0.03273998 0.018461207

bn1.weight f4 [64]
00000000: c398 863f 7e63 3d3f 2481 743f 8c44 8b3f
00000010: d96b 553f 89e3 793f f60c 733f 6a1b 963f
00000020: 66d9 763f c232 383f 0628 573f 9361 973f
00000030: 94b0 813f f360 813f a9e5 553f cbd1 653f
00000040: 6ef8 6f3f c115 763f 093d 633f 9e34 7d3f
00000050: 00a1 6d3f 97dd 7c3f 3ab3 893f 44f1 943f
00000060: b008 7b3f 6bcc 7b3f 92fc 663f 0d33 653f
00000070: 5464 613f b9cc 793f 2667 573f 5c1d 903f
00000080: c98c 833f 7feb 9d3f 0553 5a3f e747 633f
00000090: 5767 8a3f 4f39 813f 5efe 753f 9092 8f3f
000000a0: ca02 713f e482 763f 0c10 993f ccf9 763f
000000b0: 02ef 713f 96a6 643f d80a 703f eef7 5f3f
000000c0: 549d 893f 7767 783f 3336 453f 75e6 823f
000000d0: 8036 853f 9235 793f a063 653f f25c 803f
000000e0: 46e8 6a3f 9e84 443f 3a0f 7b3f 059b 6f3f
000000f0: a8ee 823f 17fe 853f bbcc 883f 1873 7b3f
1.0515369 0.7397994 0.9550955 1.0880294 0.8336769 0.97612816 0.9494165 1.1727116
0.96425474 0.7195245 0.84045446 1.1826652 1.0132012 1.0107712 0.8355356 0.89773244
0.9373845 0.96126944 0.8876501 0.9890841 0.9282379 0.9877562 1.0757821 1.1636128
0.9806013 0.9835879 0.9022914 0.8953102 0.88043714 0.97578007 0.8414177 1.125896
1.0277339 1.2337493 0.8528293 0.8878159 1.0812787 1.0095614 0.9609126 1.1216602
0.9414488 0.96293473 1.1958022 0.9647491 0.9450532 0.8931669 0.93766546 0.87487686
1.0751138 0.97032875 0.77035826 1.022658 1.0407257 0.97347367 0.8960514 1.0028365
0.9176067 0.7676486 0.9807011 0.93595916 1.0229082 1.0468167 1.0687479 0.98222494

bn1.bias f4 [64]
00000000: de16 e8bd bb56 e6bd c8de e7bd b165 9cbe
00000010: d466 0ebe 4c2d 2ebe f67b e6bc d9ae ebbd
00000020: bec0 e9bd 1019 81be 914a 64be de20 95be
00000030: 0e3f 0fbe 992e 4cbe ed56 0abe a84d ddbd
00000040: acf8 2dbd 9e4a cdbd 81e2 b3bd b47c 27be
00000050: 67ac 84bd 026d 16be 1120 94be 065e 57be
00000060: 8b99 f2bd ee15 0fbd 177c 473b 4972 26be
00000070: d822 3fbe f56e 84bc a818 fdbd 7dcc 55be
00000080: beb8 19bd d4b1 c1be 3b70 dabc 36f7 3cbe
00000090: 5d05 1abe 7ecc 5fbe 9ed4 d0bd ed91 3fbe
000000a0: f384 13be c461 39be 80b5 50be c952 0cbd
000000b0: e6c7 32be 0049 18be c798 fbbd ef99 12be
000000c0: 73cf 29be 216e 2bbe dc05 99be 7c27 85be
000000d0: 90ff 60bd c2af 37be 605a 1cbe 11fa 91bd
000000e0: c903 86be d4ec 42be e082 92be d326 bebd
000000f0: 8f77 f0bd e33f 22be fce4 cabd 29b3 9dbd
-0.113324866 -0.11247011 -0.11321789 -0.30546334 -0.13906413 -0.17009467 -0.028135281 -0.11507959
-0.11413716 -0.25214434 -0.2229407 -0.29126638 -0.13988897 -0.1993965 -0.13509722 -0.108058274
-0.04247348 -0.10023998 -0.087834366 -0.16356164 -0.06478196 -0.1469002 -0.28930715 -0.21031961
-0.11845692 -0.034933023 0.0030438954 -0.16254534 -0.18665636 -0.01616619 -0.123582184 -0.20878787
-0.0375297 -0.37830985 -0.026664844 -0.18453678 -0.15041108 -0.21855351 -0.101968035 -0.1870801
-0.14406185 -0.18103701 -0.20381737 -0.034258638 -0.17459068 -0.14871597 -0.12284999 -0.14316534
-0.16583042 -0.1674123 -0.29887283 -0.26006687 -0.054931223 -0.1793814 -0.1526885 -0.071277745
-0.26174763 -0.19035655 -0.28615475 -0.09284749 -0.11741554 -0.15844683 -0.099069566 -0.07700188

bn1.running_mean f4 [64]
00000000: 6c14 4fbf a338 6f3f cb8d 55bf 34ab 38c0
00000010: e9f2 20bd b5eb 3cbf 04cd babd 4d09 bcbf
00000020: c457 1dc0 0b83 00c0 1879 833f f420 bfbf
00000030: ea4a 77bf aa02 443f 222d 0fbf f7fe a5bf
00000040: c980 113f 7d1b b8be 2b02 9cbf 11e0 c4bf
00000050: e65a 49be 2eb3 923f 087a 29c0 49e7 80bf
00000060: 2234 84bd 53b4 35bf e036 f83e a775 aebf
00000070: ae7d 84c0 5c8d 8c3f d6f4 04c0 ea9d afbf
00000080: 40c2 083f 3f49 32c0 1a35 c03e 39fc 06c0
00000090: eb3f 09c0 ef84 c0bf 4ac6 5d3f eb07 7abf
000000a0: 8f17 f63e 4621 9c3e f865 70bf 1999 31bd
000000b0: 981f b93e 9136 d33f a68f 40be f092 83be
000000c0: 1676 30be bf2b 43bf 0687 b7be 8eb2 d4bf
000000d0: 552b f13e 3260 d43f b483 b63f da2c b7bf
000000e0: 45e1 b3bf dbe9 dcbf 840a bebf ddf9 dcbf
000000f0: 78b7 d03f 9285 8ebd ba4a 04bf 3c22 5ebf
-0.80890536 0.93445796 -0.83419484 -2.8854494 -0.039294157 -0.7379716 -0.09121135 -1.4690338
-2.4584818 -2.0079982 1.027133 -1.4931931 -0.96598685 0.76566565 -0.5592824 -1.2968434
0.56837136 -0.35958472 -1.2188162 -1.538088 -0.19663581 1.1460931 -2.6480732 -1.0070583
-0.06455256 -0.7097828 0.48479366 -1.3629655 -4.1403418 1.098064 -2.0774436 -1.3720067
0.534214 -2.7857206 0.37540513 -2.1091444 -2.1445262 -1.5040568 0.8663069 -0.9766833
0.4806485 0.30494136 -0.9390559 -0.043358896 0.36156917 1.6501027 -0.18804798 -0.25698042
-0.17232546 -0.76238626 -0.35845202 -1.661699 0.47103372 1.6591856 1.4258943 -1.4310563
-1.4053122 -1.7258867 -1.4846959 -1.7263752 1.630599 -0.0695907 -0.51676524 -0.8677099

bn1.running_var f4 [64]
00000000: 83ce f640 2ed5 c341 6925 8241 44e3 1a41
00000010: 39ac 8d42 0b9e 1741 a088 5941 6bed 8e41
00000020: da42 af41 a29e ee41 c37b 3c42 6029 8441
00000030: ea52 ab41 8cf4 ad40 4922 d541 3f29 ab41
00000040: cbfe 1d42 1d40 dc40 987a a941 05bb 8141
00000050: 0492 2a41 fea1 fc40 499d e441 7cdf 5a41
00000060: 0faf 1b41 83ff f041 7bb0 db41 f958 7141
00000070: af7e 1d42 b0b7 dd41 ffee 3142 e254 3541
00000080: 7c17 1941 0bf2 a341 7234 d541 bcb6 0542
00000090: 0219 d741 d934 2041 92e3 2942 b5f7 f140
000000a0: 1bcb f941 9c1c 6341 610d 9840 efde 9440
000000b0: 6063 0e41 da61 2341 7f98 7541 c25a 8f42
000000c0: 7f36 bf40 221d 2041 8682 a841 b1b6 3641
000000d0: 2295 a740 e9d9 8740 22ea b441 7f2e c040
000000e0: efe2 ee40 1a86 c941 83ea 0741 3bf8 8a42
000000f0: bad2 7640 2d04 8540 ccb9 6040 7f88 1e42
7.712709 24.479092 16.268267 9.680485 70.83637 9.476085 13.595856 17.865927
21.907642 29.827457 47.12086 16.520203 21.415485 5.436102 26.64174 21.39514
39.49882 6.8828263 21.18486 16.216318 10.660648 7.8947744 28.5768 13.679562
9.730239 30.124762 27.461172 15.084222 39.373714 27.714691 44.483395 11.333223
9.5682335 20.493185 26.650608 33.42845 26.88721 10.012902 42.472237 7.5614877
31.224173 14.194485 4.751633 4.6522136 8.899261 10.21139 15.3497305 71.67726
5.9754024 10.0071125 21.063732 11.419602 5.2369547 4.2453504 22.614323 6.005676
7.465202 25.19048 8.494754 69.484825 3.8566117 4.1567597 3.5113401 39.633297

bn2.weight f4 [128]
00000000: efec 843f ce29 833f 2279 803f e130 833f
00000010: beee 823f 27a8 763f b563 8b3f 62a2 803f
00000020: 25f7 843f 999e 893f fab4 743f fc16 7b3f
00000030: cbab 7f3f 84be 813f 641b 6e3f 7f69 843f
00000040: 5a4b 723f 3950 693f 08a1 803f 692c 733f
00000050: 33e4 7e3f c2d2 753f 2131 793f e3dc 853f
00000060: 97b2 853f 3bfa 823f 4dd7 6a3f 768a 853f
00000070: 1872 713f f3bc 673f 8843 713f f8ad 743f
00000080: 3751 7b3f 1029 823f e972 833f 3998 843f
00000090: e428 7f3f f6da 763f d6a5 663f 10d1 8a3f
000000a0: 8000 743f 2c89 7b3f 8ce6 7c3f 5540 783f
000000b0: 7f1e 7e3f 0a84 843f 660c 803f 86d6 7f3f
000000c0: 380c 7f3f 5cf6 8c3f 8099 883f 42d9 7e3f
000000d0: a4e4 853f 7b2a 633f cf2a 7e3f 5d2a 783f
000000e0: 9305 653f 4669 7b3f 8e8f 713f f923 853f
000000f0: 3774 813f 29ae 6a3f 0d4f 7d3f 0484 7a3f
00000100: e8ce 7c3f e1bc 743f 8bcf 723f 8ece 703f
00000110: 3f3e 743f 8749 883f a065 863f 52e6 783f
00000120: cde8 873f 8509 883f 1545 853f fea4 843f
00000130: 2bd3 843f afe1 813f 3680 7b3f c143 833f
00000140: ba95 7c3f 4c4e 823f 2d5f 703f 5a4b 613f
00000150: 9c10 873f 1fe5 733f b819 853f b0af 833f
00000160: 8a0d 813f 943d 833f c419 723f ad6c 803f
00000170: c421 6a3f c6f6 833f 56d9 823f 146f 863f
00000180: ac17 5b3f feef 703f a9c2 7f3f 7c5e 833f
00000190: 5af8 6f3f 7f2a 8b3f 4111 803f 433f 793f
000001a0: 6d80 6d3f 5d6c 813f 0fc1 813f b755 7d3f
000001b0: e45c 5f3f 689c 853f 60d7 853f 5bb0 803f
000001c0: 9c2d 893f 71be 6a3f 721c 833f fdb2 863f
000001d0: d4b5 823f 17a3 733f 901a 803f 47cf 793f
000001e0: 76b2 823f e771 5d3f 5ada 7e3f f524 8b3f
000001f0: 9620 5f3f abbb 783f 9c00 743f 9a65 6c3f
1.0384806 1.0247133 1.0036967 1.0249292 1.0229108 0.9635033 1.0889803 1.0049555
1.0387923 1.0751525 0.9558865 0.98081946 0.9987151 1.0136266 0.93010545 1.0344695
0.9464623 0.91138035 1.0049143 0.9498964 0.99566954 0.96024716 0.9734059 1.0458034
1.0445126 1.0232614 0.9173477 1.043288 0.9431472 0.9052269 0.9424367 0.95577955
0.981708 1.0168781 1.0269443 1.0358955 0.9967177 0.9642786 0.90096796 1.0845051
0.9531326 0.9825618 0.98789287 0.9697316 0.99265283 1.0352795 1.0003784 0.9993671
0.9962802 1.1012683 1.0671844 0.9955026 1.04604 0.88736695 0.9928407 0.9693964
0.8946163 0.9820751 0.9435967 1.0401603 1.0113591 0.91672 0.98948747 0.9785769
0.98753214 0.95600706 0.94847935 0.9406518 0.9540748 1.0647439 1.0499763 0.9722644
1.061792 1.0627905 1.0411707 1.0362852 1.0376943 1.0146998 0.9824251 1.0255052
0.98665965 1.0180144 0.93895227 0.880056 1.0551944 0.95271486 1.0398474 1.028799
1.0082257 1.0253167 0.94570565 1.0033165 0.9145777 1.0309684 1.0222576 1.0502648
0.85582995 0.941162 0.999064 1.0263209 0.9373833 1.0872344 1.0005265 0.97362155
0.9277409 1.0111195 1.0137042 0.98958915 0.87251115 1.0438356 1.0456352 1.005382
1.0717044 0.9169684 1.0243056 1.0523373 1.021174 0.9517073 1.0008106 0.97581905
1.0210712 0.86501926 0.9955193 1.0870653 0.871591 0.9716136 0.9531343 0.9234253

bn2.bias f4 [128]
00000000: f82b 84be 500b 42be aafb 40be 7877 d5bd
00000010: ae2c 1ebe f91c 45be c044 94bd 6153 41be
00000020: 41d7 b0bd e7af 1abc 5b27 13be 2ad3 18be
00000030: 0a00 2abe 79c1 59be df4e fcbd 737f 93be
00000040: a19a fb3b 884d 06be 1c28 49be 4702 90bd
00000050: 8fbe 94bd 4ad5 febd 0a0e 90bd 3176 51be
00000060: df8f 1bbe 3098 b6bd e926 92bd 8363 19be
00000070: fb38 23be f0ef a0bd 1de2 aebd 9341 82be
00000080: a968 89be 48ce 33be e0f9 e0bd 4572 b1bd
00000090: c3b4 4ebe 4b2d 82be c25b 4ebe 49f0 26be
000000a0: 89dc 57be 8ed1 27bd c4b7 72bd ec4b cfbd
000000b0: 2114 86bd 8d1c 32be 7f54 10be 5853 9bbe
000000c0: 9aab 47be 57c3 0ebe 888e d7bd 50c5 9abd
000000d0: 8a4a 1abe ef5c b7bd 3041 98be c580 2bbe
000000e0: 9cb1 15be 530e 10be a63a adbd 7e7a 7ebe
000000f0: 7870 cfbd 85ab abbd e3c6 02be 3c18 6fbd
00000100: a87f dbbd 15c8 46be 7f91 663b ca1b 14be
00000110: 7c26 f5bd 0adf 0ebe c32e 0ebe dcdc 77bd
00000120: 4992 4cbe c75a 44be a409 35be b3ae 01be
00000130: 9dce 75be 827e 6b3d d04b dabc 443f 8dbd
00000140: 1c43 813c fba9 43be 3a82 343d 2f47 c7bd
00000150: 4eb3 b5be e070 71be 1399 31be a373 54be
00000160: 2de0 32be 9f5b 0bbe ac7c f9bd 8da7 853d
00000170: a101 4abe 24bb 16be 9b8c 40be 3c7b e2bc
00000180: 6bc6 b83c 96c7 fbbc 5306 3ebe 2c62 c3bd
00000190: 6c3a 9bbd 5438 87bc d49b 53be 2ffe c2bd
000001a0: 9662 b53c e941 46be 28e3 36be 8793 4ebe
000001b0: 3206 91bd 706c 2cbe 4617 53be 76ae 19be
000001c0: 05f4 41be 436d a8bc a0cf 38be 60dd f8bd
000001d0: d0ce 453c 00ef 14be ab45 4cbe 9c1c 13be
000001e0: 6209 1cbe 8e3a e8bd c63d aabd 9c9d a7be
000001f0: 3cd7 bfbd 4433 55be 264b fdbd a76f 2bbe
-0.25814795 -0.18949628 -0.18846002 -0.104231775 -0.15446731 -0.19249333 -0.072396755 -0.18879463
-0.086348064 -0.009441352 -0.14370482 -0.14924303 -0.16601577 -0.2126521 -0.12319731 -0.28808174
0.0076783453 -0.13115513 -0.19644207 -0.07031684 -0.07262909 -0.124430254 -0.07033928 -0.20455243
-0.15191601 -0.08915746 -0.07136328 -0.14979367 -0.15939705 -0.078582644 -0.085392214 -0.25440654
-0.26837662 -0.17559159 -0.1098516 -0.08664373 -0.20186143 -0.2542518 -0.2015219 -0.16302599
-0.21080221 -0.04097133 -0.059257284 -0.10121903 -0.06546808 -0.17393704 -0.14094733 -0.30337024
-0.19499055 -0.13941704 -0.105252326 -0.075571656 -0.15067497 -0.089532726 -0.29737234 -0.1674834
-0.14618534 -0.14067964 -0.08458452 -0.24851415 -0.101288736 -0.08382324 -0.12771182 -0.05837272
-0.10717708 -0.19412263 0.0035181937 -0.14463726 -0.11970231 -0.1395227 -0.13885026 -0.060513362
-0.19977678 -0.19175254 -0.17679459 -0.12664299 -0.24004598 0.057493694 -0.026647478 -0.068968326
0.01577907 -0.19107811 0.044069506 -0.09730374 -0.3548836 -0.23578215 -0.1734355 -0.20747237
-0.17468329 -0.1360917 -0.121819824 0.065260984 -0.19727184 -0.14719826 -0.18803637 -0.027646653
0.02255555 -0.030734818 -0.185571 -0.09540209 -0.075795025 -0.016506352 -0.20664912 -0.09521138
0.022141736 -0.1936108 -0.1786009 -0.20173465 -0.0708126 -0.1683824 -0.20614347 -0.15007958
-0.18940742 -0.020559913 -0.18047953 -0.12151599 0.012073234 -0.14544296 -0.19948451 -0.14366382
-0.15237954 -0.113392934 -0.083125636 -0.32737434 -0.093672246 -0.20820338 -0.12367849 -0.1674181

bn2.running_mean f4 [128]
00000000: 4853 9bbf cfc5 b1bf 5f0f 3abe 3a39 6bbf
00000010: 3e30 d4bf 705c edbf 4c4f 76be a5a6 cfbf
00000020: f8f5 6ebf 501b e7bf d787 8bbf 16b9 25bf
00000030: be05 5fbf 4ccc 9abf 20d0 d5bf be59 28bf
00000040: 527b cc3e 7a20 7dbf 07ad aabf 138a 9cbd
00000050: 890f 5cbf 8668 60bf 83dc c73f 2c6c c7bf
00000060: a4de d2bf f716 e0be 7a03 a7bf 3a28 9ebf
00000070: 6259 87bf d77c b0be a4aa 29bf 2837 acbf
00000080: 07d8 e1be 4de0 dbbf 556f 11be b8fc 83bf
00000090: 718d c1bf cf4f 83bf 4b93 81bf 1dae 95bf
000000a0: 0ace 6abf c3c3 323f 8870 97bf 4575 0140
000000b0: b43e 95bf 9539 c0bf 2211 b6bf be48 c0be
000000c0: b35f 68bf f10f 1dc0 d7fc a8bf 42fa 40bf
000000d0: ccb5 4abf 3f92 bdbe fe9e f8be 4cf7 15bf
000000e0: 2d73 1abf 8f7b 45bf 00f0 86bf 480f 8bbf
000000f0: 549f a2bf f2ae 5abf 44f3 6fbf 8610 79be
00000100: 8a6b 94bf ce40 eebf 167e 8f3e 622d d5bf
00000110: 2ca0 4fbe 6221 31bf 93c3 b6bf b27e 413f
00000120: 5f01 cabf 0861 cdbf 42f6 0bbe f0e9 85bf
00000130: 300a cbbf dcbc 9fbe 0ddd 703f 6306 85be
00000140: 7ba1 9ebe a252 a4bf 8bd2 f63e dc98 8f3f
00000150: c17a dbbe 7aa3 c8bf a0b7 47bf d511 9abf
00000160: ef8a 9bbf b367 05bf eb4b edbe 0887 a03d
00000170: 0b5c 09c0 7faf 14bf cd3a bbbf 68cd b0bd
00000180: bb29 d93e e4a8 d6be bf15 9dbf df61 8bbe
00000190: dc5c 9cbf a62a 92be ca36 d6bf 7abd 89be
000001a0: de5a 37bf 82f4 abbf 0242 b5bf 6d95 dbbf
000001b0: 9e31 1abd 6ff3 01c0 0243 75bf 5000 bdbf
000001c0: 63bf a9bf b61f 6d3f 39fa b7bf 1258 48bf
000001d0: 8a66 09bf 57f6 b0bf 6104 99bf 842d dbbe
000001e0: c4b0 80bf bb7f d8be 47fd 1ebf faf8 39bf
000001f0: 8ef7 5b3f b88c 2ebf 0955 a53d d601 c8bf
-1.213479 -1.3888491 -0.18169926 -0.91884196 -1.6577222 -1.8543835 -0.24053687 -1.6222731
-0.9334407 -1.805521 -1.090083 -0.64735544 -0.87118137 -1.2093596 -1.670414 -0.65761936
0.39937836 -0.9887768 -1.3334054 -0.07643523 -0.85961205 -0.8765949 1.561417 -1.5579886
-1.6474195 -0.4376752 -1.3047936 -1.2356026 -1.0574152 -0.34470245 -0.66276 -1.3454332
-0.44110128 -1.7177826 -0.14202626 -1.0311499 -1.512129 -1.0258731 -1.0123075 -1.169376
-0.9172064 0.6982996 -1.1831217 2.0227826 -1.165976 -1.5017573 -1.4223979 -0.37555498
-0.90771025 -2.454098 -1.3202161 -0.75381863 -0.7918365 -0.3702564 -0.485588 -0.5858047
-0.60331994 -0.7714166 -1.0541992 -1.0864038 -1.2704873 -0.85423195 -0.9373057 -0.2432271
-1.1595318 -1.8613527 0.28025883 -1.6654475 -0.20275944 -0.69191563 -1.4278435 0.75583947
-1.5781668 -1.6045237 -0.13668159 -1.0462017 -1.5862484 -0.31198776 0.94087297 -0.25981435
-0.30982575 -1.2837718 0.48207507 1.1218524 -0.4286709 -1.5674889 -0.78014565 -1.2036692
-1.2151774 -0.5211136 -0.46346983 0.07838255 -2.1462429 -0.58080286 -1.462732 -0.08632928
0.4241465 -0.41925728 -1.2272261 -0.27223107 -1.2215838 -0.28548163 -1.673547 -0.26902372
-0.7162303 -1.3433993 -1.4160769 -1.7154976 -0.037644975 -2.030483 -0.9580537 -1.476572
-1.3261532 0.9262651 -1.4373237 -0.78259385 -0.5367209 -1.3825177 -1.1954461 -0.42808163
-1.0053945 -0.4228495 -0.6210522 -0.72645533 0.85924613 -0.6818347 0.0807286 -1.562556

bn2.running_var f4 [128]
00000000: 5456 ef3f aa24 1840 3806 9b3f 4a52 cd3f
00000010: 14a8 1b40 18f0 5b40 bff7 a43f ad45 6740
00000020: dec5 d43f 617e 4040 85ee cf3f c62b ea3f
00000030: ad3d 0340 410c 1240 42b4 b73f 430e cb3f
00000040: 3620 0340 02ff b93f fbfd 1840 eaed f43f
00000050: e9b7 cd3f 472a 993f a893 c33f c156 2a40
00000060: 1d77 5e40 ca63 513f 1451 c83f d0f0 ee3f
00000070: 8eda da3f 2c9c c53f c5b7 a93f ec4d c03f
00000080: 8984 f93f f4e8 4e40 fc67 9f3f 618b ec3f
00000090: 9106 5340 26bf d33f f347 723f 9a56 1d40
000000a0: 8f3e cc3f 6015 ca3f 0c59 0440 2960 1240
000000b0: 3056 d03f e74e 0c40 15fd 3540 909c 973f
000000c0: 5da5 0c40 2eed 9a40 9676 2340 2a9b d43f
000000d0: a893 1640 4526 8b3f 0cb2 9a3f f1b1 f23f
000000e0: dc9d a93f a27c cd3f 00ba a23f 179c 0b40
000000f0: 61ee a33f f7d2 963f d085 1140 dba0 b03f
00000100: 5fb9 e43f 824c e13f c56e ad3f d36b ed3f
00000110: cbea c23f 34c1 c13f e994 4e40 ae1c d83f
00000120: 0b8d 2240 7c08 3940 95c8 ee3f d5a3 f73f
00000130: db6c 1c40 cb63 c73f 683d cd3f c022 923f
00000140: 29c9 9c3f a23f 0340 fd25 ee3f ad53 c33f
00000150: e358 de3f 15af 5640 871e d03f f060 3040
00000160: ad96 0c40 d0c2 e83f 64c9 9e3f 8795 b03f
00000170: f534 0a40 56e9 1a40 b1fc 1140 715e 933f
00000180: efdf 883f b7cd 543f 6f78 c53f faa7 743f
00000190: b2ee e53f 9eab b63f d277 2240 92da c13f
000001a0: 854e 973f 109c 4a40 70aa 1240 cd78 5740
000001b0: 9572 9f3f 4cbc f13f 9726 e23f e90f 1340
000001c0: 4f68 973f e350 a93f db5d 6a40 ace1 8f3f
000001d0: 0eca aa3f fc31 a03f 4361 4e40 61a6 953f
000001e0: 3d93 0440 916f b83f 3289 bf3f 9d9b 833f
000001f0: 4741 933f a17e 943f c24d ac3f 0874 ed3f
1.869822 2.3772378 1.2111273 1.6040738 2.4321337 3.4365292 1.2888106 3.6136277
1.6622884 3.0077136 1.6244665 1.8294609 2.0506394 2.281998 1.4351885 1.5863727
2.048841 1.4530947 2.3905017 1.9135106 1.607175 1.1966027 1.5279436 2.661545
3.47602 0.8179289 1.5649743 1.866724 1.7097948 1.5438285 1.3259207 1.502378
1.9493572 3.2329683 1.2453609 1.8480035 3.2972758 1.6542709 0.94641036 2.4584107
1.5956591 1.5787773 2.067935 2.2871192 1.6276302 2.1923158 2.843572 1.1844654
2.197593 4.8414526 2.554113 1.6609852 2.3527622 1.0871054 1.2085586 1.8960553
1.32513 1.605366 1.2713013 2.181402 1.2807122 1.1783131 2.2737923 1.3799089
1.7869071 1.7601473 1.3549429 1.854853 1.5227903 1.5137086 3.2278388 1.6883752
2.5398586 2.8911428 1.8654963 1.9346873 2.444144 1.5577329 1.6034365 1.1416855
1.2248889 2.0507588 1.8605343 1.5259911 1.7370876 3.3544362 1.6259316 2.7559166
2.1966965 1.8184452 1.240521 1.3795632 2.1594822 2.4204917 2.281048 1.1513196
1.0693339 0.83126396 1.5427378 0.9556881 1.7963469 1.4271123 2.5385633 1.5144827
1.1820837 3.1657753 2.2916527 3.366748 1.2456843 1.8885589 1.7668027 2.297846
1.1828707 1.322781 3.6619785 1.1240745 1.3342912 1.2515254 3.2246864 1.16914
2.0714867 1.4409047 1.4963744 1.0281864 1.1504296 1.1601144 1.346123 1.8551035
